PPO_Walker2DPyBulletEnv-v0.pth (torch, 51307 bytes, 11 tensors)

action_layer.0.weight f4 [64, 22]
-0.06041794 -0.008792139 0.110600725 -0.46226498 -0.20667548 0.09263332 -0.11436276 0.21272607
0.26510832 -0.076875366 -0.23849896 -0.047927182 0.103282325 -0.02569901 -0.02970163 -0.086002484
-0.11853443 0.021648925 0.14208253 -0.12880215 0.16903512 -0.002719248 0.009771784 0.13654923
0.15533867 0.09873322 -0.039398786 0.017546257 -0.021051079 -0.09191534 -0.24751128 -0.1362952
0.010700141 0.19127238 0.19161122 -0.27498934 -0.08818719 -0.106095895 0.09030829 -0.27991813
0.17184548 -0.131199 0.060719293 -0.11385856 0.1039658 0.13958691 0.25000456 -0.03441849
-0.14184733 0.23635837 0.06892421 -0.009312616 -0.05005747 0.32432464 0.08507824 0.016684791
-0.13910802 -0.16185261 -0.058418583 0.22068867 -0.116531804 -0.1302353 -0.03153669 -0.17585364
-0.13885465 -0.16782254 -0.15266946 0.034859885 0.18445867 0.31832683 0.054144863 -0.21861356
-0.21188666 -0.084605694 -0.1546344 0.11333748 -0.03638181 -0.23730761 -0.19362825 0.005406971
0.24516322 -0.044757873 -0.18529528 0.21558614 -0.0805038 0.057940815 0.033408053 0.13389018
-0.0041647577 0.094258815 0.10943304 0.03873205 -0.16658579 0.096826434 0.1116923 -0.2671646
0.12532851 -0.02239373 -0.08469694 -0.020598164 -0.08639791 -0.33088234 -0.07715602 -0.19326615
-0.11164607 -0.2672267 -0.047536906 0.3144718 0.10954866 0.1257947 0.2671254 -0.14737444
-0.2025578 -0.18971908 -0.16762593 0.20673248 0.14526828 -0.010951528 0.07847842 -0.16165565
-0.009332974 -0.06629324 -0.013318166 0.35567576 0.18242301 -0.08705671 0.039489277 -0.07398272
-0.13112819 0.10934262 0.12957792 0.20871589 0.05100087 -0.043241814 -0.10491404 0.20748754
-0.1516939 -0.21550658 0.18989497 0.102296256 0.06799979 0.104686774 -0.021843495 -0.039047197
0.1419903 0.123604186 -0.010556679 0.0038155888 -0.21557967 0.15902175 -0.1499415 -0.22175653
0.19712086 0.048918318 -0.03548732 -0.112209104 0.0025559354 0.4127645 -0.057910323 0.10294874
-0.005418408 0.23096591 -0.20734146 0.08839223 -0.15647438 0.12891167 0.18499851 0.2666445
0.09055971 0.2399988 0.29548377 0.022988634 0.14375864 -0.024952738 -0.11943355 0.118243076
0.14394127 0.117629796 -0.023701511 0.028516784 -0.12494242 0.26153395 -0.05629667 0.14747976
0.15730329 0.25268593 -0.039871875 0.06378426 -0.07046578 0.24715178 0.037725013 0.09048429
0.07041512 0.16908738 0.17671788 -0.30351624 -0.033010565 0.11453046 0.24921678 0.050436538
-0.034965865 -0.23422241 0.022644758 0.024173621 -0.17196281 0.05385963 0.15239361 0.21202727
0.045545127 -0.16703746 -0.1151195 0.13381186 -0.018065752 0.1611814 -0.09100967 0.16213247
-0.076567434 -0.07643515 0.05122061 -0.10388072 0.1382866 0.08709889 -0.18580292 -0.27847207
0.13250102 0.2435723 0.021602647 0.11682637 0.0029551815 0.17286824 0.08910526 0.3029248
-0.19650334 -0.25309074 -0.1274921 0.16475165 -0.030959412 0.30933246 0.17488317 -0.06712119
0.092980444 0.12530199 -0.027349649 0.1295833 0.08333331 -0.32842427 0.09804845 0.22513734
-0.051441416 0.06606993 -0.041192736 0.18818134 -0.25491542 0.0006846287 -0.06506165 0.058775324
00000000: cd78 77bd e70c 10bc a282 e23d ffad ecbe
00000010: bda2 53be 8ab6 bd3d 0637 eabd ddd4 593e
00000020: 47bc 873e d570 9dbd 1239 74be 4b4f 44bd
00000030: af85 d33d bb86 d2bc d550 f3bc 1222 b0bd
00000040: 2ec2 f2bd 1659 b13c 157e 113e b6e4 03be
00000050: 8b17 2d3e 6935 32bb d519 203c 90d3 0b3e
00000060: 1a11 1f3e a434 ca3d 9f60 21bd 2bbd 8f3c
00000070: 5073 acbc 1c3e bcbd 9973 7dbe f890 0bbe
00000080: a54f 2f3c e8dc 433e bb35 443e 67cb 8cbe
00000090: 7c9b b4bd ce48 d9bd 8ef3 b83d 6e51 8fbe
000000a0: 43f8 2f3e 0859 06be cbb4 783d ad2e e9bd
000000b0: 05ec d43d dfef 0e3e 9900 803e 67fa 0cbd
000000c0: 6d40 11be ee07 723e 2328 8d3d f193 18bc
000000d0: 1009 4dbd e10d a63e 803d ae3d 8bae 883c
000000e0: 5572 0ebe b1bc 25be 5348 6fbd 36fc 613e
000000f0: 3aa8 eebd 675c 05be 9e2c 01bd fa12 34be
00000100: ea2f 0ebe acd9 2bbe 6255 1cbe 3dc9 0e3d
00000110: bce2 3c3e bcfb a23e 01c7 5d3d 3cdc 5fbe
00000120: d1f8 58be c045 adbd 7b58 1ebe 7b1d e83d
00000130: 1805 15bd c400 73be 7c46 46be f62c b13b
00000140: 110c 7b3e 0854 37bd 0cbe 3dbe 9dc2 5c3e
00000150: 2ddf a4bd 5953 6d3d e2d6 083d 821a 093e
00000160: 8578 88bb c40a c13d 6e1e e03d 80a5 1e3d
00000170: 7795 2abe f04c c63d efbe e43d ccc9 88be
00000180: 1e56 003e 0e73 b7bc 9775 adbd 7bbd a8bc
00000190: 63f1 b0bd 6969 a9be fa03 9ebd 90e7 45be
000001a0: b2a6 e4bd f0d1 88be 0fb6 42bd 7302 a13e
000001b0: 0c5b e03d 53d0 003e a9c4 883e 53e9 16be
000001c0: 506b 4fbe b845 42be 22a6 2bbe aeb1 533e
000001d0: 35c1 143e 0a6e 33bc 4bb9 a03d 0f89 25be
000001e0: 55e9 18bc c0c4 87bd 7034 5abc 221b b63e
000001f0: 19cd 3a3e ca4a b2bd 82bf 213d 4184 97bd
00000200: 7846 06be 06ef df3d 13b0 043e 9eb9 553e
00000210: 4ae6 503d 541e 31bd 2cdd d6bd 9d77 543e
00000220: a555 1bbe c2ad 5cbe d473 423e b380 d13d
00000230: 7943 8b3d 0566 d63d 21f1 b2bc f4ef 1fbd
00000240: e865 113e 3124 fd3d ecf5 2cbc f50e 7a3b
00000250: ebc0 5cbe 99d6 223e 448a 19be 2514 63be
00000260: 0dda 493e 935e 483d 275b 11bd e3cd e5bd
00000270: 7b81 273b de55 d33e 6033 6dbd cad6 d23d
00000280: e78c b1bb 5482 6c3e 5251 54be fc06 b53d
00000290: d23a 20be 6c01 043e 4070 3d3e a185 883e
000002a0: 5f77 b93d 3fc2 753e a649 973e a952 bc3c
000002b0: 7735 133e af69 ccbc 9499 f4bd 6d29 f23d
000002c0: 5765 133e e4e7 f03d ac29 c2bc 089c e93c
000002d0: d0e1 ffbd c7e7 853e 5697 66bd ef04 173e
000002e0: 1d14 213e 0d60 813e b150 23bd 52a1 823d
000002f0: 5d50 90bd 5b15 7d3e 8b85 1a3d d44f b93d
00000300: cd35 903d 3e25 2d3e 88f5 343e 7b66 9bbe
00000310: 1636 07bd f28e ea3d af32 7f3e 8b96 4e3d
00000320: 5e38 0fbd 00d8 6fbe 8081 b93c c207 c63c
00000330: 0517 30be ea9b 5c3d 120d 1c3e ad1d 593e
00000340: 878d 3a3d de0b 2bbe c6c3 ebbd fa05 093e
00000350: a1fe 93bc bd0c 253e 4763 babd 0e06 263e
00000360: 63cf 9cbd 088a 9cbd b4cc 513d 6abf d4bd
00000370: 019b 0d3e e760 b23d 1f43 3ebe e493 8ebe
00000380: 59ae 073e 046b 793e 09f8 b03c aa42 ef3d
00000390: b8ab 413b 5f04 313e d27c b63d f618 9b3e
000003a0: 2c38 49be 1c95 81be 4a8d 02be a8b4 283e
000003b0: 989e fdbc d360 9e3e 9314 333e d676 89bd
000003c0: 886c be3d 2a4f 003e 5f0c e0bc 7cb1 043e
000003d0: a8aa aa3d 3a27 a8be a0cd c83d 678a 663e
000003e0: 3cb4 52bd ac4f 873d b7b9 28bd 9cb2 403e
000003f0: 4684 82be a878 333a 0b3f 85bd 65be 703d

action_layer.0.bias f4 [64]
-0.17979236 0.074206896 -0.074283965 -0.084064804 -0.21648797 -0.10818597 0.17460544 -0.06896261
0.098793924 -0.15181878 0.049314275 0.1207443 -0.023098782 -0.19793235 0.0052999547 -0.19878805
-0.033383295 -0.1694161 0.19065078 -0.107299335 -0.08906093 0.15299818 -0.1224324 0.031476732
0.048854172 -0.0007313612 -0.1353527 0.13017008 0.14405242 -0.18198888 0.10802411 0.062200524
0.14198221 0.11604049 0.11074528 -0.004866711 0.008231676 -0.0020392037 -0.1279609 0.10570288
-0.13486984 0.07134775 -0.09529827 -0.089670874 0.15472123 -0.15516618 0.18493627 0.1018323
-0.10469237 0.1955204 -0.14076893 0.15164232 -0.12295936 0.0063170856 0.06256802 -0.15546182
0.068243206 0.14434676 0.05695357 0.12419872 0.07445671 0.15749878 0.18293187 0.20218909
00000000: 7d1b 38be c9f9 973d 3122 98bd 2b2a acbd
00000010: 06af 5dbe 9b90 ddbd c5cb 323e 453c 8dbd
00000020: 7854 ca3d 6276 1bbe c4fd 493d ca48 f73d
00000030: a839 bdbc c7ae 4abe 3eab ad3b 188f 4bbe
00000040: ecbc 08bd 6a7b 2dbe f539 433e c1bf dbbd
00000050: 9465 b6bd 8eab 1c3e d7bd fabd bfed 003d
00000060: 501b 483d d2b8 3fba e699 0abe 4e4b 053e
00000070: 7a82 133e 4b5b 3abe bf3b dd3d fac5 7e3d
00000080: c963 113e a3a6 ed3d 6cce e23d ee78 9fbb
00000090: 27de 063c 29a4 05bb 2f08 03be c07a d83d
000000a0: 521b 0abe c51e 923d bd2b c3bd 5da5 b7bd
000000b0: 3e6f 1e3e e2e3 1ebe ef5f 3d3e 748d d03d
000000c0: f468 d6bd 8036 483e bb25 10be 2048 1b3e
000000d0: 1ed2 fbbd 8eff ce3b a923 803d 6231 1fbe
000000e0: 18c3 8b3d a3cf 133e 2648 693d e65b fe3d
000000f0: c27c 983d 5c47 213e 7e52 3b3e a80a 4f3e

action_layer.2.weight f4 [64, 64]
-0.09543844 0.09236414 0.055077348 0.07439053 -0.10618955 0.0051246025 -0.014100534 -0.059084617
0.045693584 -0.066999674 -0.18459825 -0.062546365 -0.061850876 0.10045965 0.06495411 0.05344147
0.04510996 0.15853715 -0.043427482 -0.07442573 -0.18963638 -0.097046494 0.072924234 0.09683388
0.18566746 0.056722008 -0.16169198 -0.025751509 0.062323764 0.12133336 0.16126958 -0.030836726
0.07069616 0.03606262 -0.010949146 0.016194532 -0.07169094 0.11067606 0.07225559 0.12824067
-0.12602438 -0.16363828 0.044552032 0.15124136 -0.15332301 -0.08414883 0.010304377 0.0814615
-0.051723104 -0.1771186 0.1296737 0.08003049 0.05039844 0.16539551 -0.06256302 -0.12719388
-0.019155918 -0.05298812 -0.040453553 0.045836743 0.16257566 0.0680105 0.06435644 0.06603931
-0.1555321 0.13068038 -0.12899998 0.12596253 0.013777345 -0.044089846 0.05904395 0.053654484
0.039606083 0.006058512 0.069289856 0.07559625 -0.09893576 -0.0028745425 -0.12244237 -0.2182475
0.101368554 0.110316604 0.114468664 0.06482744 -0.023617828 -0.0034501145 0.18746205 0.10856751
-0.009186956 0.056227088 0.04093341 -0.061924834 0.12924965 -0.053468294 0.09395389 -0.13440725
-0.020958701 0.03714769 0.1691707 0.03346744 -0.106994756 0.07463576 0.10727024 0.05874868
0.07994413 0.1114975 0.13707793 0.036339127 -0.05382682 0.118171394 -0.07497322 0.053478822
0.008808549 -0.032839477 0.10178058 0.13831708 -0.14798866 0.099132776 -0.09168085 0.08831596
0.27605572 -0.07636649 -0.010985063 0.049048547 -0.03069573 0.026310405 -0.028032009 -0.02856478
0.051458646 -0.036675785 0.007436772 -0.013770818 0.059894655 -0.010416682 -0.10974162 -0.055598676
-0.0092422385 0.086231865 0.026757421 -0.21025003 0.04681655 -0.11250467 -0.06789564 -0.12508023
-0.10116512 0.04829875 -0.0778681 -0.05970786 0.07506219 0.0194206 0.019897968 0.14749034
0.036257543 0.07142815 0.007414159 0.023378102 0.09879747 -0.06164181 0.15481937 0.00018803208
0.021985538 0.14194027 0.063360065 0.21719047 0.17244358 0.059486173 -0.22064817 -0.100095145
0.07383813 -0.05285274 -0.08886256 -0.058752745 0.109702125 -0.02501696 -0.032662235 -0.051076673
0.17038919 0.12786888 0.08870193 0.030570287 0.053656563 -0.12764844 -0.08113124 -0.016313847
0.08630093 0.075144246 0.040408216 -0.059566934 -0.14412141 0.14633572 0.01310695 -0.05248672
-0.019079939 -0.08716046 -0.012176993 0.11774434 0.23707251 0.051757794 -0.20439944 -0.095685735
0.03452188 0.04070248 -0.055608917 0.08880806 -0.083932064 -0.0062210155 -0.08104347 -0.18617745
0.19516255 -0.123644084 0.07492466 0.0656577 0.017791146 -0.05999043 -0.04283772 -0.009984616
0.1104695 0.00018477032 0.13348067 -0.17276664 -0.03560534 -0.019431308 -0.06973618 -0.06577206
-0.050148644 -0.00944609 0.11465142 -0.09700311 -0.08703251 -0.06809712 0.05988944 -0.043500412
-0.04713771 0.058998562 -0.043166205 -0.09061201 0.039100934 0.08413047 0.12970385 0.01122827
0.0073026153 -0.10200648 -0.13351063 0.12676293 -0.06910525 0.03652012 -0.01595005 0.036506515
-0.015530707 -0.0036367904 -0.102588244 0.11001676 -0.058507852 0.06555104 0.074319005 0.011756026
00000000: 3b75 c3bd 6929 bd3d c998 613d 105a 983d
00000010: e879 d9bd 48ec a73b ed05 67bc b602 72bd
00000020: 3229 3b3d 2037 89bd 5307 3dbe 4f18 80bd
00000030: 5857 7dbd cabd cd3d a906 853d 71e5 5a3d
00000040: 39c5 383d 9057 223e 04e1 31bd 846c 98bd
00000050: 0a30 42be 50c0 c6bd 4d59 953d d750 c63d
00000060: 9c1f 3e3e 5655 683d 9592 25be d4f4 d2bc
00000070: 3447 7f3d a07d f83d da23 253e 4d9d fcbc
00000080: 26c9 903d 66b6 133d 0c64 33bc 65aa 843c
00000090: b3d2 92bd 21aa e23d bdfa 933d 8651 033e
000000a0: 890c 01be cb90 27be 317c 363d 04df 1a3e
000000b0: b500 1dbe 3956 acbd b1d3 283c 49d5 a63d
000000c0: 9bdb 53bd 945e 35be 2fc9 043e 07e7 a33d
000000d0: 986e 4e3d 715d 293e 0a21 80bd 1d3f 02be
000000e0: dfec 9cbc 120a 59bd a0b2 25bd 4fbf 3b3d
000000f0: 3c7a 263e 1749 8b3d 4fcd 833d 9e3f 873d
00000100: cf43 1fbe 14d1 053e 9218 04be 52fc 003e
00000110: 60ba 613c 8e97 34bd 12d8 713d cec4 5b3d
00000120: fd39 223d 7b86 c63b d7e7 8d3d 35d2 9a3d
00000130: d59e cabd d262 3cbb 11c3 fabd 467c 5fbe
00000140: 519a cf3d aced e13d 8c6e ea3d 40c4 843d
00000150: 2d7a c1bc 511b 62bb 0df6 3f3e a558 de3d
00000160: e384 16bc 604e 663d cba9 273d e5a4 7dbd
00000170: 055a 043e 9201 5bbd e66a c03d 0ea2 09be
00000180: 95b1 abbc 2d28 183d 153b 2d3e 2815 093d
00000190: 1120 dbbd a2da 983d 80b0 db3d 75a2 703d
000001a0: bfb9 a33d cd58 e43d 285e 0c3e 56d8 143d
000001b0: 8379 5cbd d803 f23d 8f8b 99bd 9c0c 5b3d
000001c0: bb51 103c b082 06bd 5672 d03d fea2 0d3e
000001d0: 578a 17be 2006 cb3d 2bc3 bbbd ffde b43d
000001e0: 2d57 8d3e 0966 9cbd b2fa 33bc 21e7 483d
000001f0: 9d75 fbbc eb88 d73c 62a3 e5bc af00 eabc
00000200: 4dc6 523d 5939 16bd 2ab0 f33b ff9e 61bc
00000210: 1954 753d bbaa 2abc 37c0 e0bd 70bb 63bd
00000220: c26c 17bc 559a b03d 6132 db3c c94b 57be
00000230: b6c2 3f3d d968 e6bd df0c 8bbd 0815 00be
00000240: a92f cfbd e9d4 453d 4f79 9fbd 3b90 74bd
00000250: 35ba 993d f317 9f3c 1001 a33c b507 173e
00000260: ca82 143d ec48 923d 79f2 f23b 6f83 bf3c
00000270: 5456 ca3d 1f7c 7cbd f888 1e3e 7a2a 4539
00000280: 041b b43c ca58 113e ecc2 813d 2e67 5e3e
00000290: 0d95 303e c6a7 733d 98f1 61be affe ccbd
000002a0: 7238 973d 1d7c 58bd 93fd b5bd b8a6 70bd
000002b0: 82ab e03d 5ef0 ccbc d6c8 05bd c635 51bd
000002c0: 817a 2e3e 0ff0 023e 5ca9 b53d 8a6e fa3c
000002d0: fcc6 5b3d 46b6 02be 2328 a6bd 9ea4 85bc
000002e0: 8bbe b03d 3ae5 993d 1683 253d 75fc 73bd
000002f0: 9094 13be 08d9 153e 88be 563c 51fc 56bd
00000300: 884d 9cbc 2f81 b2bd 0382 47bc f223 f13d
00000310: 23c3 723e fbff 533d 164e 51be e2f6 c3bd
00000320: d166 0d3d a5b7 263d 2dc6 63bd 00e1 b53d
00000330: 93e4 abbd a9d9 cbbb 1efa a5bd 4da5 3ebe
00000340: b1d8 473e 1c39 fdbd 1a72 993d 8b77 863d
00000350: bdbe 913c 86b8 75bd 9b76 2fbd 8496 23bc
00000360: d53d e23d e8be 4139 28af 083e bde9 30be
00000370: e8d6 11bd 682e 9fbc d8d1 8ebd 80b3 86bd
00000380: aa68 4dbd c6c3 1abc 5dce ea3d 91a9 c6bd
00000390: 1a3e b2bd 8176 8bbd a14e 753d 7d2d 32bd
000003a0: 7913 41bd 7aa8 713d 0ccf 30bd ca92 b9bd
000003b0: 4d28 203d 994c ac3d 16d1 043e c7f6 373c
000003c0: c74a ef3b c6e8 d0bd 03b7 08be 24ce 013e
000003d0: 0e87 8dbd 1f96 153d aea9 82bc db87 153d
000003e0: 8274 7ebc 3857 6ebb c919 d2bd 7850 e13d
000003f0: eea5 6fbd a03f 863d 9034 983d 599c 403c

action_layer.2.bias f4 [64]
-0.026023671 0.13054885 -0.061382204 0.13207614 -0.076318055 -0.117041886 0.098031566 0.085587755
-0.09741744 -0.07111199 -0.13020234 -0.08072199 -0.06835582 0.15835291 -0.031324767 -0.022585459
0.039440934 -0.035000823 0.05863381 -0.02104305 -0.056212578 -0.049892213 -0.03061884 -0.060417373
0.0042206426 0.087775595 0.10044615 -0.0330624 -0.0006776334 0.08413318 0.12638347 0.030330338
0.008258478 -0.06080527 -0.02839707 -0.06924617 -0.02320834 0.11336048 0.09895686 0.09378614
-0.07834986 0.12864104 -0.06265136 0.03295649 -0.04251879 0.14341351 -0.08896639 0.04565748
-0.105562605 -0.047065854 0.09070502 0.02393071 0.07833368 -0.068011075 -0.060887277 -0.053617764
-0.04845005 -0.11646888 -0.09404571 0.08726218 -0.097980306 -0.07727682 0.04358595 -0.10378114
00000000: 982f d5bc 99ae 053e e86b 7bbd f83e 073e
00000010: a44c 9cbd a8b3 efbd c6c4 c83d a248 af3d
00000020: cb82 c7bd 2aa3 91bd c353 05be 9251 a5bd
00000030: 23fe 8bbd 4427 223e 664e 00bd 2405 b9bc
00000040: d18c 213d 065d 0fbd 022a 703d 7962 acbc
00000050: 293f 66bd c75b 4cbd 5dd4 fabc 3578 77bd
00000060: 514d 8a3b b1c3 b33d b6b6 cd3d 706c 07bd
00000070: 35a3 31ba 044e ac3d ab6a 013e 5477 f83c
00000080: 914e 073c f20e 79bd f9a0 e8bc f0d0 8dbd
00000090: 6b1f bebc 8a29 e83d e5a9 ca3d f312 c03d
000000a0: e475 a0bd 7aba 033e 5b4f 80bd 62fd 063d
000000b0: 2f28 2ebd feda 123e 0334 b6bd 5603 3b3d
000000c0: 3531 d8bd 20c8 40bd 8ec3 b93d 560a c43c
000000d0: 696d a03d 6449 8bbd f064 79bd 4d9e 5bbd
000000e0: 8f73 46bd 3c87 eebd 0a9b c0bd 84b6 b23d
000000f0: e6a9 c8bd 4f43 9ebd 2e87 323d 358b d4bd

action_layer.4.weight f4 [6, 64]
0.10238288 0.14990754 0.032502044 0.13533968 -0.2057353 -0.15112555 0.09927693 -0.1224677
-0.0044378988 -0.002310776 -0.07864523 -0.1592856 -0.04384961 0.21748188 -0.16277796 -0.113544226
0.13551347 -0.07555318 0.034700997 0.025916135 0.048297092 -0.18683971 -0.005872208 0.07668305
0.05350836 -0.01774423 0.24046041 -0.18456443 0.067564145 0.08538752 -0.13165525 0.31818768
0.15758184 -0.23795064 0.029017337 -0.037505034 -0.023946144 0.07349815 -0.04776466 0.13105829
0.13898742 -0.029603017 0.1182943 0.1894352 -0.009805187 -0.06880657 -0.0012734585 -0.10706678
-0.14620906 -0.010158628 0.06449754 -0.3102773 -0.16458002 -0.104218565 -0.16925208 -0.06799938
-0.24462397 -0.032082338 0.19502369 -0.05547896 -0.054930873 0.12482562 0.07622454 0.19577026
0.055769574 0.038160942 -0.31372327 0.10071387 -0.047585633 0.13698415 0.1581497 0.026564904
0.13588063 0.09724013 -0.102663584 -0.02898618 -0.16907905 0.30689067 0.10460475 0.100112244
-0.016877491 -0.009563373 0.0647218 -0.21818958 0.061846696 -0.16246954 0.072136685 0.12759136
-0.27263302 -0.06124289 -0.0629224 0.17486706 -0.03077676 0.088166825 0.20173123 -0.11917248
0.20223176 0.16268578 0.15388796 -0.0035535723 -0.09927543 0.2625231 0.30131802 -0.018922906
-0.19871715 0.2872893 -0.12138815 -0.048575662 0.038227044 0.20834735 -0.010471585 -0.0034576822
-0.2529171 0.13694182 -0.03325623 0.01564802 0.10883616 -0.13929929 -0.13498865 0.067431346
-0.038057197 0.0038692334 -0.07603375 0.10607041 0.016813727 -0.2700651 -0.0877005 -0.06777428
0.10398537 0.03118676 -0.13891885 0.15157335 -0.032596335 0.08421577 0.004844788 -0.027914697
0.09386086 -0.2787794 -0.034136266 0.055329405 -0.2561168 0.06517943 0.06690448 -0.13088775
-0.019866675 -0.102824695 0.07700184 -0.117278896 -0.08140118 0.054564666 -0.027446173 0.19743378
-0.3237529 0.05730724 0.06570023 -0.119140856 -0.105143435 -0.10011684 -0.20663615 -0.17658325
0.022601932 -0.1263871 -0.010581425 -0.18129526 -0.089989975 0.29151893 0.04609028 -0.11372667
0.053741854 0.16119117 0.064222045 -0.049496025 0.109996565 0.013915576 0.09399367 -0.09284543
0.22781256 -0.15579878 0.06069086 0.106648594 -0.079242155 -0.22106577 0.036760744 -0.23090811
0.10500072 -0.03281259 -0.23429032 0.06502726 0.19720621 -0.014972534 -0.114767425 -0.124869116
0.06954189 -0.04402522 -0.05754596 -0.106815 -0.027609337 0.017316427 0.033109635 -0.0007886921
-0.0045463745 -0.0043223496 0.092016175 -0.16876641 -0.029409891 0.11556809 0.041734412 -0.09231974
0.11435931 -0.13441034 0.106099404 -0.16473193 -0.050542023 0.09034037 0.18609375 0.08338201
-0.058305897 0.047026604 0.14363171 0.054713517 -0.057160717 0.06989584 -0.027301267 -0.10449887
0.047129624 0.06406371 0.16144252 -0.05980444 -0.16207728 0.26088172 0.09591735 -0.10377812
0.02090626 0.11497793 -0.10951707 -0.039741848 0.17012416 -0.119873516 -0.033773866 0.0022064233
-0.092503466 0.0075056064 -0.19395408 0.08597738 0.017305268 0.007668577 -0.08461834 0.13367198
-0.058634914 -0.10841494 0.004762956 -0.0557133 0.0665988 -0.020183982 -0.17506509 -0.034154136
00000000: 1eae d13d 5d81 193e dd20 053d 7c96 0a3e
00000010: 46ac 52be a8c0 1abe b451 cb3d 58d0 fabd
00000020: cb6b 91bb 6370 17bb c010 a1bd c41b 23be
00000030: a69b 33bd 92b3 5e3e 44af 26be e089 e8bd
00000040: 0bc4 0a3e a0bb 9abd a222 0e3d 134e d43c
00000050: 2cd3 453d e952 3fbe a76b c0bb 010c 9d3d
00000060: 952b 5b3d 595c 91bc 413b 763e 75fe 3cbe
00000070: 125f 8a3d a7df ae3d a2d0 06be 7fe9 a23e
00000080: 225d 213e 55a9 73be c4b5 ed3c e19e 19bd
00000090: b42a c4bc 3386 963d e0a4 43bd 2534 063e
000000a0: b852 0e3e 0782 f2bc 4844 f23d 4dfb 413e
000000b0: efa5 20bc 75ea 8cbd 2dea a6ba d445 dbbd
000000c0: d4b7 15be 6070 26bc 4917 843d abdc 9ebe
000000d0: aa87 28be 8b70 d5bd 6b50 2dbe 4243 8bbd
000000e0: b57e 7abe c568 03bd 4ab4 473e e83d 63bd
000000f0: 32ff 60bd 93a4 ff3d 9d1b 9c3d 0078 483e
00000100: a36e 643d a64e 1c3d 56a0 a0be 1343 ce3d
00000110: 27e9 42bd 9345 0c3e fff1 213e a49e d93c
00000120: 4b24 0b3e d525 c73d 4941 d2bd 6d74 edbc
00000130: 0f23 2dbe c620 9d3e 043b d63d a607 cd3d
00000140: aa42 8abc b2af 1cbc dd8c 843d 176d 5fbe
00000150: f652 7d3d 6a5e 26be 66bc 933d 4fa7 023e
00000160: 8e96 8bbe d3d9 7abd 76dd 80bd 5a10 333e
00000170: 8b1f fcbc cf90 b43d a292 4e3e b410 f4bd
00000180: d815 4f3e 1a97 263e ce94 1d3e 0de3 68bb
00000190: eb50 cbbd 6e69 863e 5b46 9a3e 3604 9bbc
000001a0: 827c 4bbe 9517 933e 5a9a f8bd 46f7 46bd
000001b0: f693 1c3d 0259 553e 0391 2bbc 489a 62bb
000001c0: 5a7e 81be 7a3a 0c3e af37 08bd 4730 803c
000001d0: 7ee5 de3d 79a4 0ebe 773a 0abe 7219 8a3d
000001e0: dde1 1bbd f792 7d3b 95b7 9bbd 713b d93d
000001f0: f1bc 893c f945 8abe 529c b3bd 3ecd 8abd
00000200: 48f6 d43d 607b ff3c be40 0ebe 0b36 1b3e
00000210: bc83 05bd 5179 ac3d 07c1 9e3b 5dad e4bc
00000220: 1f3a c03d 2cbc 8ebe 78d2 0bbd 16a1 623d
00000230: be21 83be cb7c 853d 3705 893d 7007 06be
00000240: 70bf a2bc c195 d2bd 24b3 9d3d eb2f f0bd
00000250: a9b5 a6bd 337f 5f3d ccd6 e0bc 152c 4a3e
00000260: f1c2 a5be ffba 6a3d d88d 863d 1f00 f4bd
00000270: 7155 d7bd 0f0a cdbd 6d98 53be 3dd2 34be
00000280: b027 b93c 9f6b 01be b75d 2dbc 77a5 39be
00000290: aa4c b8bd f841 953e 29c9 3c3d 87e9 e8bd
000002a0: 6b20 5c3d 4c0f 253e d986 833d 58bc 4abd
000002b0: e145 e13d 28fe 633c c17f c03d bf25 bebd
000002c0: b247 693e b789 1fbe fb96 783d 946a da3d
000002d0: b649 a2bd 115f 62be 6f92 163d 2d73 6cbe
000002e0: 9e0a d73d 7f66 06bd cde9 6fbe 032d 853d
000002f0: 6df0 493e 5c4f 75bc 2f0b ebbd 61bb ffbd
00000300: fa6b 8e3d ca53 34bd 50b5 6bbd d3c1 dabd
00000310: fa2c e2bc 2edb 8d3c f89d 073d 3bc0 4eba
00000320: c1f9 94bb 7fa2 8dbb fa72 bc3d 1ad1 2cbe
00000330: 03ed f0bc f6ae ec3d b4f1 2a3d 2212 bdbd
00000340: 3735 ea3d dda2 09be a54a d93d 7daf 28be
00000350: 2705 4fbd 5f04 b93d 5c8f 3e3e 30c4 aa3d
00000360: 2ad2 6ebd f89e 403d 3114 133e 481b 603d
00000370: 5b21 6abd 8d25 8f3d e8a6 dfbc 8103 d6bd
00000380: fe0a 413d d633 833d 3051 253e 80f5 74bd
00000390: 96f7 25be 4a92 853e 5170 c43d 9f89 d4bd
000003a0: 9b43 ab3c 8d79 eb3d 7c4a e0bd 59c8 22bd
000003b0: 0735 2e3e 3f80 f5bd 7756 0abd a499 103b
000003c0: 7572 bdbd 97f1 f53b e69b 46be e914 b03d
000003d0: c7c3 8d3c b048 fb3b 614c adbd 4fe1 083e
000003e0: 2a2b 70bd a708 debd 9212 9c3b a133 64bd
000003f0: f464 883d e158 a5bc 4344 33be 35e5 0bbd

action_layer.4.bias f4 [6]
0.12144582 0.1586655 -0.09401891 -0.042195372 0.030770604 0.13035443
00000000: 96b8 f83d 3579 223e fc8c c0bd 0ed5 2cbd
00000010: a212 fc3c a27b 053e

critic_layer.0.weight f4 [64, 22]
-0.55925614 0.109505884 -0.14229424 -0.05211878 0.06900376 -0.34814075 -0.09928478 0.1000247
-0.08449682 -0.046467442 0.18484886 0.13471183 -0.19016653 -0.19324876 -0.035840966 -0.015992368
-0.09950894 -0.07923152 -0.02472006 0.13314983 0.1621671 0.0051606973 0.45040715 0.13381709
-0.20443648 -0.29692295 0.073084705 0.26512903 0.18048263 0.04982534 0.19359241 0.23722258
-0.26370937 0.17721698 0.17871107 0.116878115 0.07413715 -0.039572533 -0.077260874 0.11131489
0.17430638 -0.01816527 -0.06575705 0.13186358 0.38778007 -0.13034457 -0.14273849 -0.016026823
0.045604594 -0.19144483 0.084436916 0.26276943 -0.1087654 0.104422435 0.20939507 0.32578525
-0.20814548 -0.28796828 -0.20079874 0.07841732 -0.10975938 -0.15407747 -0.009399004 0.045258902
-0.21428354 -0.17882805 0.36449978 -0.051599223 0.21051425 0.6215381 0.112455785 0.284379
-0.08992926 0.08474641 -0.105959155 -0.053581063 -0.0033693565 0.03640556 0.10688841 -0.2959158
-0.045111813 -0.053024262 0.007906254 0.008846462 -0.0956803 -0.21108672 -0.13483606 0.08385379
-0.3931642 0.14844948 0.2060811 0.24137262 0.092320934 -0.11377385 0.08928053 0.278413
-0.2819836 -0.3221387 -0.047893334 -0.018671365 0.18057114 -0.021475535 -0.1218808 0.03434012
-0.08134009 -0.2115302 -0.238722 -0.10910992 0.13031495 -0.16252303 -0.068900414 -0.17857447
-0.27879828 -0.8867733 -0.038641505 -0.1920966 -0.092111714 -0.11327668 0.092646435 0.09822389
0.1472055 0.29292992 -0.45689723 0.20120959 0.3369187 0.11882491 -0.18344112 0.099545605
-0.21158737 -0.034114216 -0.12705925 0.17716222 0.4325544 0.16924572 0.035633404 1.120137
0.11682189 0.058779188 -0.10756338 0.24663742 0.00030919924 0.13144727 0.33107805 0.08870545
0.1986424 0.042261004 -0.06798204 -0.2476272 -0.020533979 -0.30689305 -0.14105467 0.0119512435
0.035045568 -0.048820913 0.19907312 0.0014633231 -0.17417704 -0.0014748371 -0.16782619 -0.05527481
0.023408901 0.17248808 -0.0068841632 0.19129351 0.00220704 0.043888956 -0.2272758 0.06015166
-0.22104764 -0.2801924 0.12117819 0.18980382 -0.20837797 0.07428117 0.033904396 -0.110050656
-0.5163441 -0.077111125 -0.11949002 -0.52401817 -0.1586886 -0.212231 0.066051014 -0.2870628
-0.24038737 0.11253267 -0.027094746 -0.05369416 -0.087399736 0.078840144 0.27694276 0.0007674801
-0.13073005 0.036468443 0.11883726 -0.049084887 0.022767084 -0.13277969 -0.5290517 -0.18624832
-0.12719248 -0.697541 -0.14148614 -0.16359614 -0.025650218 -0.16233751 -0.14529644 0.2016729
0.079943 0.26026982 -0.16920511 0.23607449 -0.0019206245 0.11271463 -0.017313419 0.18933062
-0.022361444 -0.11811295 0.12441735 -0.09116655 0.4221224 0.14437169 0.05039149 -0.16731125
-0.07401392 0.065542616 -0.1323513 -0.15895906 0.041461762 0.10036273 -0.035262108 0.20348206
-0.2208458 -0.09016663 0.034134272 0.13010843 -0.17755882 -0.10163809 -0.05446763 0.053381108
0.09717878 0.097549565 0.32982475 -0.18403828 0.05596988 -0.5898879 -0.21080877 0.10547403
-0.049789384 0.008289641 0.12216591 0.2564347 -0.11658456 0.13148005 -0.3344532 -0.012983389
00000000: 692b 0fbf 9f44 e03d 95b5 11be 807a 55bd
00000010: d851 8d3d 813f b2be d255 cbbd c0d9 cc3d
00000020: ab0c adbd a554 3ebd 0549 3d3e e6f1 093e
00000030: 04bb 42be 01e3 45be facd 12bd 6d02 83bc
00000040: 58cb cbbd 2344 a2bd b981 cabc 6e58 083e
00000050: 220f 263e 111b a93b c49b e63e 5907 093e
00000060: cc57 51be 4906 98be 6fad 953d febe 873e
00000070: 70d0 383e a815 4c3d 173d 463e 7aea 723e
00000080: ea04 87be 5e78 353e 0900 373e cb5d ef3d
00000090: 38d5 973d cf16 22bd f33a 9ebd 10f9 e33d
000000a0: 5f7d 323e 55cf 94bc a2ab 86bd 3f07 073e
000000b0: 1c8b c63e 0c79 05be 0a2a 12be af4a 83bc
000000c0: e2cb 3a3d 1d0a 44be 43ed ac3d b789 863e
000000d0: 65c0 debd 6edb d53d a96b 563e 53cd a63e
000000e0: 1724 55be 9470 93be 2f9e 4dbe 4399 a03d
000000f0: 87c9 e0bd 7cc6 1dbe 48fe 19bc 6661 393d
00000100: 256d 5bbe b31e 37be b79f ba3e b559 53bd
00000110: 0c91 573e 1f1d 1f3f 384f e63d 209a 913e
00000120: d52c b8bd 878f ad3d 1d01 d9bd d177 5bbd
00000130: 6cd0 5cbb ff1d 153d 50e8 da3d 4782 97be
00000140: 2ac7 38bd f82f 59bd 3c89 013c c0f0 103c
00000150: 08f4 c3bd 1e27 58be 7712 0abe 89bb ab3d
00000160: d14c c9be 2403 183e ed06 533e 622a 773e
00000170: c212 bd3d 4402 e9bd b6d8 b63d 268c 8e3e
00000180: 2860 90be 5def a4be cd2b 44bd b1f4 98bc
00000190: a4e7 383e 76ed afbc a49c f9bd 3aa8 0c3d
000001a0: a295 a6bd 5f9b 58be 8a73 74be 0675 dfbd
000001b0: 4871 053e 706c 26be a91b 8dbd 3adc 36be
000001c0: a6be 8ebe 9303 63bf 8e46 1ebd f9b4 44be
000001d0: 11a5 bcbd 9bfd e7bd 6abd bd3d 9b29 c93d
000001e0: 0abd 163e e9fa 953e 6fee e9be e309 4e3e
000001f0: 9c80 ac3e 795a f33d fdd7 3bbe 91de cb3d
00000200: 5caa 58be 59bb 0bbd d21b 02be 036a 353e
00000210: c577 dd3e c04e 2d3e 55f4 113d a660 8f3f
00000220: 5140 ef3d 72c2 703d 304a dcbd 858e 7c3e
00000230: 051c a239 1d9a 063e 1083 a93e 34ab b53d
00000240: ea68 4b3e e019 2d3d 2b3a 8bbd fc91 7dbe
00000250: e036 a8bc 1621 9dbe a370 10be 26cf 433c
00000260: f18b 0f3d 70f8 47bd d3d9 4b3e facc bf3a
00000270: 775b 32be 524f c1ba a1da 2bbe d767 62bd
00000280: 06c4 bf3c b7a0 303e 8c94 e1bb 72e2 433e
00000290: fda3 103b e8c4 333d fdba 68be 9661 763d
000002a0: 505a 62be 6175 8fbe 452c f83d ef5b 423e
000002b0: 0961 55be ba20 983d 56df 0a3d 3d62 e1bd
000002c0: 202f 04bf 70ec 9dbd 2fb7 f4bd 0e26 06bf
000002d0: 447f 22be 1553 59be c145 873d e5f9 92be
000002e0: 1b28 76be 8777 e63d cdf5 ddbc 68ee 5bbd
000002f0: a2fe b2bd f176 a13d 71cb 8d3e b830 493a
00000300: 19de 05be ef5f 153d f360 f33d 3c0d 49bd
00000310: 0982 ba3c 66f7 07be ef6f 07bf e1b7 3ebe
00000320: bf3e 02be 0c92 32bf bee1 10be bf85 27be
00000330: 6820 d2bc ce3b 26be 97c8 14be 5783 4e3e
00000340: 28b9 a33d 1642 853e 1b44 2dbe 83bd 713e
00000350: 77bd fbba eed6 e63d dfd4 8dbc e3df 413e
00000360: 592f b7bc 34e5 f1bd 86ce fe3d 87b5 babd
00000370: 6d20 d83e 2cd6 133e 4f67 4e3d a453 2bbe
00000380: 9c94 97bd 353b 863d 1987 07be 2ac6 22be
00000390: cfd3 293d fa8a cd3d 006f 10bd 9a5d 503e
000003a0: 6725 62be 48a9 b8bd 61d0 0b3d 253b 053e
000003b0: fbd1 35be a227 d0bd 7319 5fbd 26a6 5a3d
000003c0: ab05 c73d 11c8 c73d cade a83e 8874 3cbe
000003d0: ac40 653d e502 17bf 41de 57be c502 d83d
000003e0: f4ef 4bbd 46d1 073c 1f32 fa3d 694b 833e
000003f0: e3c3 eebd b5a2 063e 733d abbe 48b8 54bc

critic_layer.0.bias f4 [64]
0.09455167 -0.0878384 0.008945861 0.060937025 0.20506704 -0.23588406 0.13377501 -0.15390496
0.07716271 0.07350603 -0.1658051 0.15189923 -0.14163718 0.006615606 0.0129559785 -0.040419724
-0.1679807 0.003400605 0.1384496 -0.12760389 0.14329016 -0.15252455 0.14218089 0.25606227
-0.17880628 -0.1269115 -0.12967649 0.20484933 -0.1901836 0.14488815 -0.05252601 -0.17263338
-0.044358663 -0.053993147 -0.030249484 -0.1617461 -0.113581486 0.006722815 -0.08491113 -0.18784156
0.022414282 -0.018204398 0.3261658 0.04465859 -0.20679632 -0.061278902 0.19531703 0.062137865
-0.038819548 -0.089747466 0.10084959 0.08499755 0.051970612 -0.17240761 -0.19419247 -0.021979183
-0.07819805 0.056953397 -0.047123898 0.01979643 -0.09488844 0.0478362 0.036234133 -0.051488914
00000000: 4ea4 c13d 9ee4 b3bd a991 123c 1a99 793d
00000010: 18fd 513e 978b 71be 51fc 083e 4399 1dbe
00000020: 7c07 9e3d 548a 963d d0c8 29be 798b 1b3e
00000030: 5609 11be bac7 d83b 5045 543c 278f 25bd
00000040: 2203 2cbe afdc 5e3b bbc5 0d3e 98aa 02be
00000050: a8ba 123e 652f 1cbe de97 113e 981a 833e
00000060: fe18 37be 17f5 01be eac9 04be 06c4 513e
00000070: 7dbf 42be 8f5d 143e 8325 57bd cec6 30be
00000080: 6eb1 35bd eb27 5dbd c4cd f7bc c5a0 25be
00000090: 699d e8bd 0f4b dc3b e3e5 adbd 8a59 40be
000000a0: 289e b73c 6421 95bc 34ff a63e edeb 363d
000000b0: 6ac2 53be 96ff 7abd 3001 483e 4684 7e3d
000000c0: 3f01 1fbd 85cd b7bd 3b8a ce3d 3213 ae3d
000000d0: 23df 543d 9f8b 30be 64da 46be b00d b4bc
000000e0: 4d26 a0bd f747 693d fd04 41bd 1f2c a23c
000000f0: df54 c2bd e4ef 433d 3e6a 143d 0ae6 52bd

critic_layer.2.weight f4 [64, 64]
-0.10948075 0.11383859 -0.021912651 5.0135033e-05 0.02024898 0.12604637 -0.13207197 0.011242516
0.037982468 0.014990178 0.101208314 0.11545805 0.14167854 0.16299494 0.08904689 -0.063401625
-0.10839651 -0.10710901 0.07775283 0.071749724 -0.079913795 0.12853864 -0.073900945 0.06724343
0.13328785 0.03963021 0.13268657 -0.009825273 -0.05852889 -0.05569146 0.038102638 0.009981468
0.029963791 -0.022543017 0.008590531 0.039164696 -0.08665259 0.03278383 -0.00079107145 -0.13549006
-0.11183799 -0.0024153586 -0.06297638 -0.18224443 -0.06402805 0.06348075 -0.055810183 0.076856084
0.045111585 -0.058345336 0.010676701 -0.0664723 -0.10882241 0.025877465 0.13181446 0.085237995
0.13818286 0.019912599 -0.198133 0.15630622 0.11706937 -0.04913338 -0.05656822 -0.0035039743
0.12196918 0.017247165 -0.11542 0.0071943537 0.11890035 -0.08315207 0.056473903 0.034217626
-0.031401712 -0.15091291 -0.009661585 0.013250998 0.026521882 0.042514287 0.0001985605 0.15268539
0.061226532 0.13560854 0.073551156 0.009139103 0.04774478 -0.079945736 -0.022066766 0.061562378
-0.008832047 -0.06590713 0.067388736 -0.01737183 0.07123974 0.07126497 0.05854058 -0.12999232
0.094326206 0.04526463 -0.044932906 0.044970207 0.10658928 -0.08728483 0.05624365 0.09261163
0.039323572 0.15813896 0.03400643 -0.041260112 0.058064092 -0.02640545 0.18741278 0.0106708165
-0.0031670881 -0.052042406 -0.09796913 -0.05769789 0.06170667 0.061527625 0.029925339 0.07304533
-0.07854899 0.19117852 0.13787127 -0.15026064 -0.19245379 -0.09445285 0.07412866 0.08479997
-0.061552368 0.068596676 -0.03842151 0.011106326 -0.1629539 -0.03483854 -0.16703162 0.007733453
-0.005265793 0.20525897 0.050720416 0.07541126 -0.06349136 0.22432895 -0.03341185 -0.024004433
-0.084137626 -0.24645214 0.00507531 -0.15343127 -0.033987887 -0.013503584 0.017892057 0.025527034
-0.03459764 -0.013625607 -0.01581218 0.04891957 0.11131765 0.023918219 -0.041227855 0.1038904
-0.069454364 -0.023591647 0.060058873 0.12658046 0.017428126 0.015673267 -0.11826076 0.07562179
-0.037385736 0.0012419503 -0.057101246 -0.19346423 0.012766449 0.09541035 -0.24087812 0.08751911
0.103564486 -0.19143766 -0.015926046 -0.14816035 0.058395017 -0.10189647 0.17145766 -0.050395366
0.07339422 -0.18715024 -0.020525685 0.21846846 0.052073147 0.08074077 -0.04376208 0.04406105
0.25221276 0.058235243 0.015599563 -0.07824519 -0.1517105 0.13432634 -0.07957963 0.12710029
-0.034708414 0.08044883 0.09518302 0.17820698 -0.019697929 0.079073675 0.111039475 0.031448785
0.020241432 0.12739809 -0.043544423 0.046037816 -0.023228334 -0.009586097 -0.18737833 0.019611083
0.2139695 -0.033760946 0.051487338 -0.06873563 0.1559196 -0.19222966 0.06880161 0.033191796
-0.03367776 -0.09467185 -0.007928668 0.14832646 0.034191195 0.09957852 -0.11087988 0.03587677
-0.050409384 0.07697176 -0.08727823 0.0041765464 -0.13148698 0.07710353 -0.109117016 -0.02322507
0.17205776 0.0028412973 -0.023993505 -0.016875561 0.025429351 0.1420151 0.071649015 -0.07400388
-0.022744788 -0.050132547 -0.28378835 0.2424442 0.124040134 0.12883009 -0.030327925 -0.10365815
00000000: 7237 e0bd 3524 e93d 2982 b3bc 1548 5238
00000010: 30e1 a53c 4d12 013e e03d 07be 8832 383c
00000020: 8193 1b3d 5d99 753c 4e46 cf3d 4575 ec3d
00000030: 2e14 113e 25e8 263e 375e b63d b6d8 81bd
00000040: fdfe ddbd f85b dbbd e03c 9f3d 85f1 923d
00000050: d8a9 a3bd a29f 033e 6159 97bd ecb6 893d
00000060: 9c7c 083e 4953 223d fdde 073e 2ffa 20bc
00000070: fdbb 6fbd ba1c 64bd 8311 1c3d 5089 233c
00000080: a076 f53c 22ac b8bc 4cbf 0c3c 296b 203d
00000090: ea76 b1bd 5648 063d e85f 4fba e8bd 0abe
000000a0: 510b e5bd fe4a 1ebb c3f9 80bd 499e 3abe
000000b0: 2321 83bd 3202 823d 3899 64bd b966 9d3d
000000c0: edc6 383d 85fb 6ebd 54ed 2e3c a122 88bd
000000d0: 49de debd fafc d33c 5ffa 063e 4291 ae3d
000000e0: cf7f 0d3e bf1f a33c 61e3 4abe bd0e 203e
000000f0: 11c2 ef3d 1540 49bd 14b4 67bd efa2 65bb
00000100: faca f93d ed49 8d3c 5261 ecbd 9dbe eb3b
00000110: 0782 f33d a24b aabd 2e51 673d c827 0c3d
00000120: 159f 00bd ea88 1abe a04b 1ebc b71a 593c
00000130: 6b44 d93c 7623 2e3d ae34 5039 8f59 1c3e
00000140: acc8 7a3d f7dc 0a3e fda1 963d 2dbc 153c
00000150: 0890 433d 97ba a3bd 5dc5 b4bc d528 7c3d
00000160: 4ab4 10bc 51fa 86bd 1b03 8a3d 5e4f 8ebc
00000170: 24e6 913d 5ef3 913d 3fc8 6f3d b51c 05be
00000180: 192e c13d 6867 393d 910b 38bd ae32 383d
00000190: 7b4b da3d 64c2 b2bd be5f 663d 2bab bd3d
000001a0: c111 213d 2eef 213e 544a 0b3d 5d00 29bd
000001b0: 9dd4 6d3d 3e50 d8bc 23e9 3f3e a6d4 2e3c
000001c0: ec8e 4fbb 6b2a 55bd 0aa4 c8bd 9f54 6cbd
000001d0: 22c0 7c3d 6404 7c3d fc25 f53c ca98 953d
000001e0: 4bde a0bd 4dc4 433e 202e 0d3e eddd 19be
000001f0: 9b12 45be 7f70 c1bd c4d0 973d 9bab ad3d
00000200: 561e 7cbd 6a7c 8c3d e05f 1dbd 4ff7 353c
00000210: 63dd 26be dbb2 0ebd 560a 2bbe e868 fd3b
00000220: ac8c acbb 682f 523e 36c0 4f3d 3871 9a3d
00000230: c207 82bd 7db6 653e ddda 08bd f2a4 c4bc
00000240: 5950 acbd f35d 7cbe c94e a63b 161d 1dbe
00000250: e236 0bbd 233e 5dbc 5d92 923c 121e d13c
00000260: 41b6 0dbd f03d 5fbc 8b88 81bc e35f 483d
00000270: 82fa e33d 24f0 c33c 8ade 28bd 7dc4 d43d
00000280: 173e 8ebd 4543 c1bc 4b00 763d 4f9e 013e
00000290: 6ec5 8e3c 3965 803c b332 f2bd 99df 9a3d
000002a0: c921 19bd f0c8 a23a ffe2 69bd 7d1b 46be
000002b0: 5e2a 513c 8066 c33d c1a8 76be 383d b33d
000002c0: 9e19 d43d 3c08 44be 5777 82bc 59b7 17be
000002d0: 9d2f 6f3d 19af d0bd 9992 2f3e 5f6b 4ebd
000002e0: b54f 963d 50a4 3fbe 7b25 a8bc 32b6 5f3e
000002f0: a74a 553d 6b5b a53d de3f 33bd 5c79 343d
00000300: 0822 813e 1488 6e3d 4f95 7f3c 043f a0bd
00000310: ff59 1bbe d88c 093e a5fa a2bd 9426 023e
00000320: 692a 0ebd 5bc2 a43d 51ef c23d e47b 363e
00000330: 8d5d a1bc 61f1 a13d aa68 e33d 71d0 003d
00000340: 5cd1 a53c a574 023e a35b 32bd 2692 3c3d
00000350: 5949 bebc 010f 1dbc 1be0 3fbe 6ca7 a03c
00000360: d21a 5b3e eb48 0abd 63e4 523d 44c5 8cbd
00000370: 63a9 1f3e dad7 44be dce7 8c3d 1ff4 073d
00000380: b1f1 09bd 51e3 c1bd 3ee7 01bc e4e2 173e
00000390: 110c 0c3d d3ef cb3d fe14 e3bd 85f3 123d
000003a0: 127a 4ebd 5fa3 9d3d eebe b2bd 69db 883b
000003b0: 86a4 06be 75e8 9d3d be78 dfbd 8142 bebc
000003c0: e92f 303e 0f35 3a3b 078e c4bc 9e3e 8abc
000003d0: 3751 d03c 686c 113e b8bc 923d 598f 97bd
000003e0: 4753 babc c957 4dbd b54c 91be 4b43 783e
000003f0: c108 fe3d 09ec 033e 4572 f8bc b94a d4bd

critic_layer.2.bias f4 [64]
-0.09002406 0.05836065 -0.027973074 -0.024922086 -0.05916985 -0.12164949 0.015060083 0.04099365
-0.15544187 0.017568378 -0.11706191 0.099229574 -0.1567163 -0.15676503 0.04222049 0.043473493
0.1239819 -0.037454505 0.17010695 -0.0048820106 -0.11972452 0.035388213 0.045237526 -0.1892193
0.03004997 0.01032966 -0.02126943 -0.10735318 -0.06988587 0.08766952 0.060813487 0.06586569
-0.04960736 -0.03125682 -0.043559372 -0.023699258 -0.07745745 -0.09783096 -0.1675946 -0.119399056
-0.10712074 0.012258985 0.12354838 0.14228971 0.017779099 0.1353896 0.05381131 0.06527881
0.05001741 -0.046773143 0.050103035 -0.011972312 0.08636321 0.08402296 0.07732828 0.09296453
0.01141546 -0.08810918 0.11075775 0.10117651 0.06463707 0.017939601 -0.14747794 -0.057477355
00000000: 895e b8bd 940b 6f3d ca27 e5bc 6729 ccbc
00000010: 165c 72bd 5e23 f9bd 91be 763c f5e8 273d
00000020: 272c 1fbe 8feb 8f3c 28be efbd e038 cb3d
00000030: 3d7a 20be 0387 20be 64ef 2c3d 4311 323d
00000040: 39ea fd3d e569 19bd 8430 2e3e 46f9 9fbb
00000050: 2132 f5bd 3bf3 103d fc4a 393d b4c2 41be
00000060: 5b2b f63c bc3d 293c 3a3d aebc fcdb dbbd
00000070: 5320 8fbd 148c b33d 9017 793d 97e4 863d
00000080: 1631 4bbd 2707 00bd 506b 32bd f224 c2bc
00000090: 03a2 9ebd 995b c8bd eb9d 2bbe 7e87 f4bd
000000a0: 1e62 dbbd e9d9 483c ef06 fd3d 65b4 113e
000000b0: 79a5 913c 92a3 0a3e 4069 5c3d e6b0 853d
000000c0: 0edf 4c3d 3295 3fbd d738 4d3d 8427 44bc
000000d0: 32df b03d 3b14 ac3d 4a5e 9e3d 3064 be3d
000000e0: e907 3b3c 9672 b4bd f6d4 e23d a135 cf3d
000000f0: 7160 843d 12f6 923c 7504 17be 606d 6bbd

critic_layer.4.weight f4 [1, 64]
0.15149012 -0.07387545 0.08324302 0.14614265 0.062320795 -0.2874287 -0.09018473 0.13425146
0.15794618 -0.10765769 0.05417123 -0.056643415 0.11006583 0.11955303 -0.052036457 0.14610416
-0.15914755 0.08105538 -0.056262713 -0.016278148 0.060063306 0.15852079 0.23001716 0.1289098
0.10660591 0.08159812 0.18630856 0.18753621 -0.1223116 -0.051114984 -0.017955253 -0.2619393
0.11998635 -0.087543376 -0.107713275 -0.06681869 0.20563753 0.1480118 0.08977672 -0.48651654
0.24237879 0.13028473 0.004040936 0.28418717 -0.0145521285 -0.17084777 0.10156549 0.010630273
-0.07294844 -0.22335811 0.08382842 0.17283379 0.12416897 -0.18450837 -0.13070144 -0.1663424
-0.10533479 -0.23718853 -0.13406183 0.20172606 -0.06429913 -0.19299513 0.117496386 0.08153204
00000000: 3a20 1b3e 034c 97bd 517b aa3d 6ba6 153e
00000010: 1744 7f3d db29 93be c6b2 b8bd 3779 093e
00000020: a5bc 213e a37b dcbd a7e2 5d3d ed02 68bd
00000030: 326a e13d 38d8 f43d 2e24 55bd 549c 153e
00000040: 93f7 22be 5d00 a63d bb73 66bd c059 85bc
00000050: f104 763d 4653 223e 9e89 6b3e ee00 043e
00000060: 3354 da3d ea1c a73d acc7 3e3e 7e09 403e
00000070: 817e fabd f25d 51bd e516 93bc e81c 86be
00000080: 67bb f53d f149 b3bd c798 dcbd 3dd8 88bd
00000090: a592 523e 6890 173e dbdc b73d b218 f9be
000000a0: 2532 783e 5c69 053e d469 843b fb80 913e
000000b0: 0d6c 6ebc b8f2 2ebe 9101 d03d 992a 2e3c
000000c0: fe65 95bd fdb7 64be 3cae ab3d 57fb 303e
000000d0: 4d4c fe3d c3ef 3cbe 99d6 05be a955 2abe
000000e0: c4b9 d7bd 8de1 72be 8147 09be 4791 4e3e
000000f0: 43af 83bd 84a0 45be f2a1 f03d 45fa a63d
