PPO_LunarLander-v2.pth (torch, 43603 bytes, 11 tensors)

action_layer.0.weight f4 [64, 8]
00000000: 0d8f 7cbe 56c8 e9bd 662a 6d3e b6f4 01bf
00000010: ea26 33bf d6f5 17bd 12f4 24be 4b21 2d3e
00000020: 2802 933e a2dd 52be b897 bfbe 576a 6cbc
00000030: 9635 263f 6298 c13e c242 73bd f412 5bbe
00000040: 1710 34be f1c7 4abe 90a8 653e 77b4 01bf
00000050: eef7 6a3e b211 893d ef6c febd 1c6f 173e
00000060: a3db af3e 21b3 2abd 675f 8f3d 17da 5e3e
00000070: ba2f 90be 2190 08bf 075f 45be 0844 f6bd
00000080: 6bd1 9e3d 8049 023e 2860 d63e 3ac1 a1be
00000090: 31b5 debe 5b8c b5be 3284 3e3e faaf 86be
000000a0: deda 873e a350 cdbe c63e 803e ef48 7dbe
000000b0: bf43 a63d d8de 663e 57b8 743e c6de 3bbe
000000c0: 84f3 29be 8bd8 a23e a640 fd3d 7019 6b3e
000000d0: 6c1c 67be b370 c43d 25b2 543e 4b27 b83d
000000e0: ee07 d2bd 03e2 043d 35db dfbd b3b7 413e
000000f0: ac2d e4be 6373 84be 6610 543b 7b57 b6bd
00000100: ec1e b5be 0af0 a3be cda6 60be 6e88 753d
00000110: 6d8c 2a3f 8267 4e3f a8f7 423d f613 aabe
00000120: c8f4 64be e3dd 2bbe ec55 90bd 19f8 0d3d
00000130: 8391 cdbe 5650 f1be 8f97 0dbe ded5 253e
00000140: 1f73 b03e 7922 0bbd 6c51 34be 467d f23e
00000150: 0c47 95be 4495 e8bc be80 983d 49d7 923e
00000160: 0fda d2bd 9522 753e e09a 8c3e 76fe 833e
00000170: 7f33 f0be b5b4 63be 173c 783e 234d 3dbe
00000180: a252 243e 8389 1d3e 2005 b03c f390 fd3d
00000190: a183 d3bd ac47 02bf c1a7 ae3c fa69 62be
000001a0: 6045 39be 0b10 1ebe 56d4 68be 8e71 cd3e
000001b0: cfe9 323f 874c 193f 6f1e 673e 114e 77be
000001c0: 7aeb a9be 5ece 3f3d 8006 b0be 2df8 e23e
000001d0: b689 293f 25d8 b13e 7f36 db3c 190d 29be
000001e0: c1a9 efbd 6133 b63b c4e4 4d3d 8681 3b3e
000001f0: d6a3 223f c8fc 653d a785 a33d 7634 6a3d
00000200: 059d 7ebe 0290 8e3e 1b17 aa3e 6746 e73e
00000210: c4e1 39bd e196 9cbe 4676 6ebd f58f bf3e
00000220: 88b2 87be 8b4d 1ebe 09b5 113e d33a 2dbe
00000230: 8757 bb3e 77e3 a73e 7651 16be f882 993d
00000240: 3bae 893e c521 2ebd f86f cb3c 9e9e 73be
00000250: 43eb 41bf 4751 4abe 89f6 13bd 83fb 94be
00000260: 6ad2 893e 7f8c b13c 83ab 183d 4fd5 a3be
00000270: be2d 86be c072 303e 1001 3dbd c890 8b3d
00000280: 1c05 503d e375 ba3e 3de2 b3be cbec a93e
00000290: 8579 01be 92a7 d93e 8485 c73d fd9f 733e
000002a0: ded6 34bd cdbc 853e fe65 a03e d748 913c
000002b0: f0db 093e 0bc8 9abc 18b9 78be ee60 623e
000002c0: c459 b53d 913c 3d3e f7b8 5a3e 6f0d d33d
000002d0: a2fd febe 8cf2 64be 0798 be3c 82ce 203e
000002e0: 49ae 903e f4bc bc3e 1cc3 6c3d 0a3b 5d3e
000002f0: eb37 183e 06f5 913e 1105 443e 7483 ae3c
00000300: b47d 813e 3117 81bd cef4 8d3e d05e eabe
00000310: 4df1 3cbe ddc9 963e 6d93 723e 4b53 84bc
00000320: d8f4 bb3c eefb efbd e93c 823d be4b 3cbe
00000330: 0cf2 07bf 0891 983c a2ff 833e a593 a83e
00000340: 9935 7b3d a10b b0be 2301 dcbc 4e0c 5cbe
00000350: c34a 2dbe f5a2 963e 4180 143d 681d 063e
00000360: 9163 66be 741e 49bd 3b4d 6ebe b2ed 77be
00000370: a302 133f 4179 1c3f 9955 9abe e4c9 9ebe
00000380: f260 723e ee9a 473e bc4c f13d b6ba 8e3e
00000390: 6ac9 10bd c8f0 74bc 5b73 033e e958 843e
000003a0: 9503 4bbe e1d0 20be ce38 e3bd 5771 d13e
000003b0: f99c 803d 98a7 403e b817 883e 94f7 0b3e
000003c0: 4e8d d33d 77e5 953e 787d fd3d 4ea6 b63e
000003d0: 570b 86bd 80ce 25bf 730e 273e 2f9d 873e
000003e0: 624f c9bc 2af4 2b3e 04af e8bd 3068 a93e
000003f0: 3911 c3be 4d8a 31be fad0 19bd 0369 6b3e
-0.24663945 -0.11415164 0.23160705 -0.50764024 -0.69981253 -0.03709968 -0.1610873 0.16907232
0.28712583 -0.20592359 -0.3742044 -0.01442965 0.64925516 0.3781157 -0.059389837 -0.21393949
-0.17584263 -0.19802834 0.22427583 -0.5066599 0.2294614 0.06692828 -0.12423121 0.14788479
0.34347257 -0.041674737 0.070006184 0.21762882 -0.28161412 -0.53344923 -0.19274531 -0.12024695
0.07754787 0.1272335 0.41870236 -0.31592733 -0.43497613 -0.35458645 0.18605116 -0.26306134
0.2653417 -0.40100583 0.25047892 -0.24734853 0.0811839 0.22545946 0.23898445 -0.183467
-0.165968 0.31805834 0.12365846 0.22958922 -0.22569436 0.09591808 0.20771082 0.089918695
-0.10255419 0.032442104 -0.10930482 0.18917732 -0.44566095 -0.25869283 0.0032358407 -0.08903404
-0.35375154 -0.32019073 -0.2193863 0.059944563 0.6662052 0.8062669 0.047599465 -0.33218354
-0.22359002 -0.16783862 -0.07047638 0.034660432 -0.4015008 -0.47131604 -0.13827346 0.16194865
0.3446283 -0.033968423 -0.17609185 0.473612 -0.29155767 -0.028391488 0.074464306 0.28679875
-0.102954976 0.23938973 0.2746191 0.25780076 -0.46914288 -0.22236903 0.24241672 -0.18486457
0.16047147 0.15384488 0.021486819 0.123811625 -0.103278406 -0.5089061 0.021320226 -0.2211074
-0.1809287 -0.15435807 -0.2273725 0.40125698 0.69888014 0.59882396 0.22570203 -0.24150874
-0.33187467 0.046827666 -0.3437996 0.44329968 0.66225755 0.34735218 0.026759384 -0.16508903
-0.117023 0.005560324 0.050266996 0.18311128 0.63531244 0.056149274 0.079844765 0.057178937
-0.24864586 0.27844244 0.33220753 0.451709 -0.045381323 -0.3058386 -0.058218263 0.37414518
-0.26503396 -0.15459268 0.14229216 -0.16916971 0.36590216 0.3279073 -0.14679512 0.074956834
0.2689074 -0.042512674 0.024833664 -0.23790976 -0.75749606 -0.19757567 -0.036123786 -0.29098138
0.26918346 0.02167344 0.03727294 -0.3199868 -0.26206774 0.17231274 -0.04614359 0.06814724
0.050786123 0.36418065 -0.35133544 0.3318847 -0.12644012 0.42510659 0.09742263 0.237915
-0.044150226 0.26120606 0.31327814 0.017734928 0.13462806 -0.018894216 -0.24289358 0.22107288
0.08855012 0.18480136 0.21359621 0.10305297 -0.4980288 -0.2235815 0.023265852 0.15703776
0.2825797 0.3686291 0.05780326 0.21604553 0.14865081 0.2850725 0.19142558 0.021302916
0.25291216 -0.063032515 0.27725834 -0.4577546 -0.18451424 0.29450884 0.23689051 -0.016152998
0.022943899 -0.11717974 0.06359274 -0.18388268 -0.5310371 0.018623844 0.2578097 0.32925144
0.06133041 -0.34383872 -0.02685601 -0.21489069 -0.1692305 0.294212 0.036255125 0.13097155
-0.22498919 -0.049101308 -0.23271649 -0.24211767 0.574259 0.6112252 -0.3014343 -0.31013405
0.23669794 0.19492695 0.11782214 0.27876824 -0.035348333 -0.014949985 0.12836973 0.25849083
-0.19825585 -0.15704681 -0.11094819 0.40906784 0.0627994 0.18813932 0.26580596 0.13668662
0.10329686 0.2927663 0.12377447 0.35673755 -0.06545132 -0.6476822 0.16314106 0.2648711
-0.024573985 0.1679236 -0.113615066 0.330873 -0.38099077 -0.17337914 -0.03755281 0.22989278

action_layer.0.bias f4 [64]
00000000: 80a2 bcbd 6061 273e e29b 0ebe 178b f83d
00000010: 776e 14bd 4a89 3c3e 4122 50be 1241 453e
00000020: 489f 833e a462 173e 6e8b 9d3a f092 89be
00000030: 7980 f5bb 7503 a33e 39b3 293e 4dfb c03d
00000040: 62b7 79be 6539 07be d5e8 c3bd 2032 0ebe
00000050: e360 e83d 961e 43bd 56b5 34bd 580a 53bd
00000060: d34b 16be 68f6 66be d099 183c f7d3 173d
00000070: 71f2 62be c9d8 f13c 1284 1bbe 6ffb 0c3c
00000080: a3f4 673e 39b4 cbbd 981a a23c a4ce 37bd
00000090: 919b 20be 1338 42be fb1f e13b d9ec ae3e
000000a0: 3475 6f3d 946c 2a3e 8636 c4bb b4b0 863e
000000b0: 3b35 043e f40b 1d3e 570c 6cbd ce13 bd3d
000000c0: 3b90 3d3e 9a38 b23d be68 10be 0b15 5b3e
000000d0: 02a4 78be f58a 533e ef4b 8fbd cdb2 18bd
000000e0: 8e25 43bd 1503 8b3d 624f 0bbe 4d6a 6bbb
000000f0: 723a 99bd d811 4f3e b091 603e b8eb 4abe
-0.09210682 0.1634574 -0.13926652 0.12135904 -0.03623816 0.18411747 -0.20325567 0.19263104
0.2570746 0.14783722 0.0012019703 -0.26869917 -0.007492122 0.31838575 0.16572274 0.09422932
-0.24386361 -0.13205488 -0.095658936 -0.13886309 0.11346605 -0.04763659 -0.044118248 -0.051523536
-0.14677362 -0.22554934 0.0093140155 0.03706738 -0.22162797 0.029522317 -0.151871 0.008604868
0.22651915 -0.09946484 0.019788072 -0.044874802 -0.15684344 -0.18966703 0.0068702674 0.34165075
0.058461383 0.16642982 -0.005987945 0.2630669 0.12910931 0.15336591 -0.057628956 0.09232293
0.18512051 0.08702202 -0.14102456 0.21394746 -0.24281314 0.20658477 -0.06996905 -0.037279893
-0.047643237 0.06787697 -0.13604501 -0.0035921514 -0.07481851 0.2022165 0.21930575 -0.19816482

action_layer.2.weight f4 [64, 64]
00000000: 5682 7b3d fa0e af3d ed7d d23c 64f3 363e
00000010: 4c78 223d 37fd c1bd 36fe 723d 713c 153e
00000020: 6355 ecbd 9682 0abe af9b e9bd 62ca 273e
00000030: 0c4d 4a3e 63cb afbd 3a2f 08bc f00d 1dbd
00000040: 1fb7 a33b 08f3 9f3d 8f85 643e 23d0 f3bc
00000050: e91b 0e3e f32c 39bc 73f2 4f3d 9d56 7e3c
00000060: 879a 7b3c abc9 3d3c c9b0 3cbe 8f4e 873d
00000070: 7a1b 1c3d bf19 05bc 265f 013e daf3 d6bd
00000080: 3c50 d7bc 8a6b 04be 71da 283e cd35 04be
00000090: ac91 eebd 3fd4 54bd d236 d63d 6121 083b
000000a0: cc57 073c 798b 6d3d 8a05 f83d 39dc e2bb
000000b0: 7cc7 e53c 3f6b 383d c4ab 50be 6469 273e
000000c0: 2fcc d6bd 3e69 123d 2af2 0c3e 08f0 9cbb
000000d0: 1ed2 21bd 3589 35bd 2409 d83c 3b4a b6bd
000000e0: 7531 4b3e bf65 183d 5528 25be 22b9 fdbd
000000f0: b6d5 8e3d 3cdf 13bd 19b0 063e 19fe 213e
00000100: ce91 9b3d 53f6 903e caa2 853c ae12 36be
00000110: 5096 b73b 3daf fabc e52d 8abd 87a9 c0bd
00000120: 131a 453e 0873 273c 9a6e 84bc b91c 4abd
00000130: 6b80 2cbe 65dc ca3d ce8d 433e 5ea8 133d
00000140: 5c38 08be 13d5 40bd 399f 4cbb b69b 873d
00000150: 6fd7 823c e03c 19bd c727 7139 b9b4 743d
00000160: 84aa 80bd dce0 5c3c 1112 1c3e 615a 1e3e
00000170: 20dc 2dbe 11ca 96bd 0c45 04be 0f38 01be
00000180: b248 e0bd c193 933d 4c0e 39be b0a5 ccbd
00000190: f6b5 92bc 5352 6139 bc63 1d3e f59b ecbd
000001a0: d175 853d f4bc 703b 0577 0fbe 78c7 d4bd
000001b0: 0fb2 3a3e e226 e13c 9ce3 513e 9dae 2bbd
000001c0: d755 4d3e 93d1 aa3d fbc1 503c cc66 67bd
000001d0: e27f 013d 82b8 873d 5f0c a9be 0b04 b93b
000001e0: 82d6 aebd af08 203c 5af1 c8bd 26c5 a5bd
000001f0: 2f1b 77be 02b8 22bd f3ff 00bb c086 6b3b
00000200: 105e 96be c721 c8bd 0b7f 82bd 83bf 013e
00000210: ca3f 33be acae 09be 28fc e63d 40b8 0f3d
00000220: b5f0 e9bd 8de2 ff3d 6d1d 20bc 57d4 043e
00000230: 7688 69bd 9e27 823d 7a5f 2a3e f708 4b3d
00000240: 388b b33d e150 1a3d 257a 72be b1b3 a2bd
00000250: 92d1 073e 83d5 7cbd cb8f 9a3d 142a b83c
00000260: 2f32 a3be d309 57bd f37e 4ebc 4a8d 86bc
00000270: 9bc2 013e 9ce5 253d ed15 a03e e4c7 463d
00000280: eec0 513c b329 a23d 44e1 8f3e a0c9 8abd
00000290: 2322 983d 5001 6bbd 7bc4 66be 8c6c e03d
000002a0: 92bd 89bd e271 bd3d 9fac bc3d 5b0f f73d
000002b0: 1286 893d 341d 3fbe 99ca 1abe 84b9 343d
000002c0: b52c 02be 7e2c 7c3d d63e a2bc 8968 43bd
000002d0: 321d 22be fd4c 3bbe a1bd 6e3e a618 65be
000002e0: 40cc 36be 1658 533e 6303 103d 2779 8abd
000002f0: c090 b53d 1412 cd3d 900d 1e3e d5c3 1ebd
00000300: 3d9c 32be 2f55 3cbe dc60 02be 4b3b 113e
00000310: 7855 d43b 3d36 57be a7ca 273d 449a 8ebd
00000320: e869 df3b 0859 2e3d 5f82 b3bc 2124 9a3d
00000330: 8e94 7f3d 1f28 033e 1bef 2f3e 6d5f a73d
00000340: 4c6b b23d 1e2e 33bd 96ae 503c e0c1 063d
00000350: b5d1 f53d c90d dc3d bedf 4cbb 3308 013e
00000360: cd94 0ebe 47fa aabc 9666 75bc a6a5 2dbe
00000370: f9a8 9f3b cf41 8f3d 19ce 8f3e 0445 663e
00000380: ea34 99bd 83e0 a0bd b64a 883e 8a04 6cbd
00000390: 277c 94bd cb73 043d ef8c 64be ae06 46bc
000003a0: 5911 3fbe 33f6 a5bd 4b43 cd3c 7aab 383e
000003b0: 1cab cabc 35c2 31be b826 14be edb6 7c3e
000003c0: b344 42be f668 dfbd 84d4 a4bd 40f7 ba3d
000003d0: 054f a2bd 4764 44be dbb4 2b3e d6c2 9bbe
000003e0: 28dd 9f3b 180e 213e 4c40 ee3d 9794 88bc
000003f0: 2e64 983c 9709 1bbd ad7c 053e 9955 65ba
0.061403595 0.085477784 0.025694812 0.17866284 0.039665505 -0.09472125 0.059324466 0.14573838
-0.11539724 -0.13526377 -0.114066474 0.16385797 0.19755954 -0.08583715 -0.008312041 -0.03834337
0.004996195 0.078100264 0.22316574 -0.029762333 0.13877834 -0.011302221 0.050768327 0.01552358
0.015356666 0.011583726 -0.18426813 0.06606781 0.03811214 -0.008123814 0.12633952 -0.1049573
-0.026283376 -0.12931648 0.16489579 -0.12911148 -0.116488785 -0.051960226 0.10459675 0.0020771849
0.0082606785 0.05799434 0.121104315 -0.0069232252 0.028049223 0.045024153 -0.20378023 0.16348797
-0.10488164 0.035744898 0.13764253 -0.004789356 -0.039507024 -0.044320304 0.026371546 -0.08900877
0.19843085 0.037206408 -0.16128667 -0.12388827 0.06974356 -0.036101565 0.13153113 0.15819587
0.075961694 0.2831293 0.016312975 -0.17780563 0.0056026354 -0.030601138 -0.06747035 -0.09407335
0.19248228 0.010220297 -0.01616602 -0.0493438 -0.16845863 0.09905318 0.19097063 0.03604924
-0.1330275 -0.047078203 -0.0031222834 0.066214964 0.015971867 -0.03741157 0.00022998369 0.059742663
-0.06282523 0.013481345 0.15241267 0.15464164 -0.16978502 -0.0736276 -0.12916964 -0.12619041
-0.109513655 0.07205916 -0.1807186 -0.0999254 -0.017909031 0.0002148834 0.15370077 -0.11553184
0.06516612 0.0036733719 -0.14010246 -0.10389608 0.18231986 0.027484361 0.20496982 -0.04191457
0.20052277 0.08340754 0.012741561 -0.05649452 0.0316161 0.06626989 -0.3301725 0.005646234
-0.08537008 0.009767695 -0.09811659 -0.08094244 -0.24131463 -0.039726265 -0.0019683808 0.0035938472
-0.2936864 -0.097720675 -0.06371888 0.12670712 -0.17504802 -0.13445538 0.11278564 0.035087824
-0.11422864 0.12494383 -0.009772641 0.12971626 -0.057014905 0.06355213 0.16637984 0.049569096
0.08766788 0.03767479 -0.23679407 -0.0794443 0.13263538 -0.06172706 0.075469576 0.022481002
-0.31874225 -0.052499603 -0.012603509 -0.016424794 0.12671892 0.040502176 0.31266728 0.048530474
0.012802346 0.0791811 0.28101552 -0.06776738 0.07428386 -0.0573743 -0.22535889 0.10958204
-0.06725611 0.09250237 0.09212612 0.12063476 0.06715025 -0.18663484 -0.15116347 0.044122234
-0.12712367 0.06156587 -0.019805353 -0.047707114 -0.1583145 -0.18291087 0.23314525 -0.22372684
-0.17851353 0.20639071 0.03515948 -0.06761389 0.088654995 0.10013214 0.15434861 -0.03876098
-0.17442413 -0.1839187 -0.12732261 0.14182775 0.006479915 -0.21016784 0.04096475 -0.069630176
0.006818045 0.042565376 -0.021912752 0.07526422 0.062397532 0.12808274 0.17181055 0.08172498
0.087118715 -0.043745153 0.012736937 0.032899737 0.12002889 0.10744817 -0.003126129 0.12600784
-0.1392395 -0.020871295 -0.014978072 -0.16957721 0.004872438 0.06994974 0.28086928 0.22487265
-0.07480796 -0.07855322 0.266195 -0.057621516 -0.07250243 0.03233699 -0.22319387 -0.0120865535
-0.18658961 -0.081035994 0.025056502 0.18034163 -0.024739794 -0.1735924 -0.14467895 0.24679156
-0.18971519 -0.109086916 -0.08048347 0.091291904 -0.07925228 -0.19178878 0.1676821 -0.30422086
0.004878659 0.15728033 0.116333574 -0.016672416 0.018602457 -0.037850942 0.13035841 -0.0008748412

action_layer.2.bias f4 [64]
00000000: 9290 f4bd 64bb 86bd c003 d73d 4604 17bd
00000010: 08c1 8a3b c8c8 593c 6008 1b3e 5f68 843c
00000020: 235b 25bc 7253 a9bd 6ef3 fb3c 41b8 f33d
00000030: c288 b43c 7052 133e e043 be3d d834 91bd
00000040: 8610 523d fb20 6cbd 4477 5e3d ca72 c2bd
00000050: 859b 90bd f0ee 0b3d e046 db3d 2cc0 b53d
00000060: e510 8bbd 6776 0dbd 386f 13bb 060d 6d3d
00000070: 9b7f a7bc d806 aabc 7ff2 d23c 524d 3dbd
00000080: d08d d2bd 9a55 cbbd b239 38bd 356b 17bd
00000090: c2df b63d 14d4 56bc 66f6 d43d e40d 2abc
000000a0: 4333 17be 0aa0 03bd 0a33 bdbc 2b2a a1bd
000000b0: 5bc9 b63d dab0 723c 6e42 c7bd 3c87 8b3d
000000c0: 7da6 d13d 5907 e0bb 6061 8b3d 7de9 fcbd
000000d0: ccac 98bd 565a 09bd e6da b0bd 644a 2a3d
000000e0: 9586 a5bd 3b95 fcbd 74ed a4bd 696a f43b
000000f0: 8ed0 bfbd b8a1 d73d a7ee e03d a6b6 e03c
-0.11941637 -0.06578711 0.10498762 -0.03686931 0.004234437 0.013292499 0.15139914 0.01616305
-0.0100925295 -0.08267869 0.030755725 0.11900378 0.022037867 0.14386916 0.0929029 -0.07090157
0.05128529 -0.05764864 0.05431296 -0.094945505 -0.07060913 0.034163415 0.10706878 0.088745445
-0.06790332 -0.034536745 -0.0022496711 0.05787375 -0.02044659 -0.020755216 0.025750397 -0.046216317
-0.10280955 -0.099284366 -0.044976898 -0.036967475 0.08929397 -0.013112087 0.10398559 -0.010379288
-0.14765649 -0.032135047 -0.023095626 -0.07869371 0.08925124 0.0148126725 -0.09729467 0.06812903
0.10236833 -0.0068368134 0.06805682 -0.12349222 -0.074548334 -0.033533417 -0.086355016 0.04157485
-0.0808231 -0.12333151 -0.08053103 0.007458974 -0.093659505 0.10528892 0.10983019 0.027430844

action_layer.4.weight f4 [4, 64]
00000000: a011 07be b908 e5bd d80e 8f3e bc8e 343e
00000010: e264 adbc 0d82 d63d b1e3 633d f661 06bd
00000020: 0e86 b13e 806b 213e a464 cf3d e459 f2bb
00000030: 8240 3f3e dd4a 823e 87f9 503e 0507 db3c
00000040: 9ef8 0e3d 7b1f 9c3d 37b1 b73c e1ce c5bd
00000050: f2e5 6ebe 80f6 993e 0a5b 99be 25f9 7cbd
00000060: 4618 0a3e 98ae f23d 8e44 343d 271d f33d
00000070: 325d c2bd 127d a63d cb13 4dbd 058b 55bd
00000080: 80ec 61bd 831c 83be 8634 c4bd fb5d 69be
00000090: 86e6 27be e049 37be 2fdd 333e f220 0cbe
000000a0: 3a88 e5bd 42dd 0fbe 8433 50bd 8c3f 5e3e
000000b0: a8d7 0b3e e8b6 83bd 9ab1 cabd 7271 44be
000000c0: 4154 50be b63a 3e3e cce6 ec3d 297e 3bbe
000000d0: ecad 673e e1e2 8a3e 93a0 14bd b8ae 883e
000000e0: 35dc 0f3d 2252 72be 5863 48be 7485 60bd
000000f0: 7443 82be 8251 93be 192b 03bd 2acc 9c3d
00000100: 8f32 ea3d 328a 1dbe f2bc d03b 26ce 933d
00000110: b866 e6bd 3e04 a73c 58dd a8be 53ad 503b
00000120: 00bc b53d e887 a1bd 2f0b 3e3d 8a9a fdbc
00000130: 696d a7be b6bb 5fbe 13a1 953c 3681 983e
00000140: 74a9 7e3e 88b1 143e c398 563e ff0e e4bd
00000150: 3edb 41be 22b3 273e a027 2dbe 9369 5cbe
00000160: a66a 473e e5cd 803d 67bb 163d b376 973e
00000170: 0ee1 243e e113 8ebe 6164 973e 0096 33be
00000180: 4054 783d 73f3 5d3d c52d 8abe 2e8d 163c
00000190: a4b8 8e3d 61d3 b53d 7481 55be a322 503e
000001a0: ceae 9a3e 4495 113c edf5 9eba 4511 6b3d
000001b0: 683e 543d a058 b93d 771f 8c3d ec12 6cbe
000001c0: 692c 033d 93e0 93bd 6695 c7bd 6699 283e
000001d0: 6c9f 49be 085b 9d3d fbcc 553e b09d 26be
000001e0: 88ff babd ad31 f93d 4122 e23d 8934 563e
000001f0: effa 9fbc 7e65 22be f9fa 86be f08b 973d
00000200: b0db cabd 6759 4e3e 8397 15be f0c9 47be
00000210: dc6e 98bd 37da b0bd fde1 a9bb 03a6 223e
00000220: ac8a 59be ed9e 7cbe bc10 9cbd bfd6 d23d
00000230: 1c00 c03c c394 1abe 98d6 033e 1e64 24bd
00000240: ce65 85bd d2c1 42bd e370 90be a6aa a1bd
00000250: bb79 743e 4a10 45be 53e7 253e a1a5 2b3e
00000260: bffb fabd cec5 3cbe 73fe cd3d 037b a5bc
00000270: a709 abbd 1e42 9fbc b0a6 2fbe f86e 5f3e
00000280: 3005 153d fdc7 8d3e 43ed 98bd 8ab0 403e
00000290: ea6c 053e a2ee 7e3e 0b22 ef3d 9e60 1c3e
000002a0: 1a24 c33b 7e1e 7a3e c79b 65be 962e 3bbe
000002b0: 57d0 293d 1d82 3b3e d1ac ddbb 909d 683e
000002c0: db9f 473e 0305 26be 6dd8 8dbd 2f66 f3bd
000002d0: 8211 32be 6d74 c7bd 1bb8 b6bd bca2 88bd
000002e0: 9fec c9bd b2a1 023e f2f8 733e 79ea 1a3e
000002f0: 68a5 643e 9515 eb3d a29c 98bc 754d 043e
00000300: 1df7 3b3d 9ad4 c33d d628 803d 1424 9b3d
00000310: a0b5 3e3d 1691 0dbe 2b43 cc3d 7c6b 0fbe
00000320: 4c36 98bd 35da 453e 8849 1c3d f451 70be
00000330: e67a 843e 5804 543d 4a7f 973d a1e4 72be
00000340: e9ca 67be e8d1 16be 3edc 1d3c 7ed2 0b3e
00000350: e6b8 b93d 7966 a7bd 2633 75bd 6516 703d
00000360: 747c 85bd 9537 8fbc 52bf e3bc bdff 6bbe
00000370: e9c7 ecbc 5c62 b13d baf5 ba3d d742 843e
00000380: 701b 53be 9d51 a7bd c7bc 893d eff2 acbb
00000390: 7d4d 8d3d 4e4b 31bd 8817 e1bd 7ca4 23be
000003a0: aa48 82be 2117 3f3c e038 483e 78ec a2bd
000003b0: 0a43 d9bd 78b7 873d 5e77 74bd c0fc 1b3e
000003c0: dcce ea3c 2d36 e8bd 7823 173e 1530 16be
000003d0: 714c ef3d b02d 8abd 769c 6c3d 3300 9d3d
000003e0: beca 173e 6939 4d3e 3b59 8fbd 3936 88be
000003f0: fb43 c4bc d637 28bd 1e3e 7f3e fe9b 0a3d
-0.13190317 -0.11183304 0.27941012 0.17632574 -0.021166269 0.10474024 0.055637065 -0.032808267
0.34672588 0.15763664 0.101266176 -0.0073959697 0.18676952 0.2544774 0.20407687 0.026736746
0.03490507 0.07623192 0.02242337 -0.096586 -0.23329905 0.30070877 -0.2995227 -0.06176104
0.13485822 0.11849707 0.04401069 0.11870795 -0.09490432 0.08129324 -0.050067704 -0.052134532
-0.055157185 -0.2560769 -0.095803306 -0.22789757 -0.16396531 -0.17899275 0.17564844 -0.13684443
-0.11207624 -0.14049247 -0.05083038 0.21703929 0.13656485 -0.06431371 -0.09897156 -0.19183901
-0.2034464 0.18577084 0.115674585 -0.18309845 0.2262494 0.2712622 -0.036285948 0.266958
0.035122115 -0.23664144 -0.19569147 -0.05481477 -0.25442088 -0.28773123 -0.032023523 0.07656129
0.114354245 -0.15384749 0.0063701803 0.07217054 -0.11250061 0.020387765 -0.32981372 0.003184159
0.08873749 -0.0788725 0.046397384 -0.030957479 -0.3270066 -0.2184895 0.018265283 0.2978608
0.24869329 0.14520848 0.20956711 -0.11135673 -0.1893129 0.16376927 -0.16909647 -0.21524648
0.19474277 0.06289271 0.036799815 0.29582748 0.16101477 -0.2774954 0.2956877 -0.17537689
0.060627222 0.05418725 -0.26988044 0.009188933 0.06968811 0.08878208 -0.20850164 0.20325713
0.3021149 0.008885685 -0.0012127735 0.057389516 0.051817328 0.09050107 0.06841939 -0.23054093
0.032024775 -0.072205685 -0.09745292 0.16464767 -0.19689721 0.076833785 0.20878975 -0.1627109
-0.0913077 0.12167678 0.1104169 0.20918478 -0.019528834 -0.15859029 -0.26363352 0.07399738
-0.09905183 0.20151292 -0.14608578 -0.19510627 -0.0744302 -0.08635371 -0.0051844106 0.15883641
-0.21244305 -0.2467 -0.07620379 0.10294866 0.023437552 -0.1509581 0.1287483 -0.04013454
-0.06513558 -0.047548123 -0.28211126 -0.07893877 0.23874561 -0.19244495 0.16201524 0.16762401
-0.12255048 -0.18434832 0.10058298 -0.020200258 -0.083514504 -0.019440707 -0.1715343 0.21819675
0.0363819 0.2769164 -0.07467129 0.18817344 0.13029829 0.24895719 0.11676415 0.15271232
0.0059552314 0.24425694 -0.22422706 -0.1827949 0.041458454 0.18311353 -0.006764986 0.22716355
0.19494574 -0.1621285 -0.069260456 -0.11884724 -0.17389491 -0.09739003 -0.08921834 -0.06671664
-0.09859585 0.12756994 0.23825434 0.15128507 0.22328722 0.11478726 -0.018629376 0.12920173
0.045889962 0.09562035 0.06257789 0.07575241 0.04655993 -0.13824877 0.09973749 -0.14005846
-0.07432231 0.1932152 0.038156062 -0.23468763 0.25875014 0.051761955 0.07397325 -0.23720028
-0.22635998 -0.1472851 0.009635029 0.13654515 0.0906847 -0.08173842 -0.059863232 0.058615107
-0.06517878 -0.017482558 -0.02780119 -0.23046775 -0.028903918 0.08661339 0.091289 0.25832245
-0.20615935 -0.081698634 0.067254595 -0.0052779834 0.06899545 -0.043284707 -0.10990816 -0.15980715
-0.25446063 0.011663229 0.19552946 -0.07955259 -0.1060849 0.06626791 -0.05968415 0.15233135
0.028663091 -0.11338458 0.14759624 -0.1466678 0.11684502 -0.067469954 0.0577664 0.076660536
0.14823434 0.20041431 -0.06999441 -0.2660387 -0.023958197 -0.041068874 0.2492604 0.033840172

action_layer.4.bias f4 [4]
00000000: 2313 d13d 918f f7bd 1aff 1bbd 49b4 b2bd
0.10208728 -0.1208793 -0.03808508 -0.08725793

critic_layer.0.weight f4 [64, 8]
00000000: 9785 90be f429 443d b69a 7cba 3d7b 833e
00000010: 7326 913e 6695 f93e 7238 50be c928 f53d
00000020: b21e 92bd b618 e1bd bf1a b8be da5a b0bd
00000030: c784 0b3e 8257 35bf f79a 803e e0a8 30bd
00000040: eb55 ff3c d541 913e f9a6 b63e 2355 ddbe
00000050: b61f 6dbe e2bc d5be d05a fdbd e4a1 823e
00000060: 4111 293d 35d1 e8be 4cee bdbe 9582 1bbe
00000070: d24b 91bb 488c 88bf 3508 9dbe 6356 ac3c
00000080: bd85 513e 4a6e 233e d1ef f83c c349 0abf
00000090: 1b9b 6c3e 7643 de3e f3fd 36be 266c 1e3e
000000a0: 4918 b1be d49a 91be 0ef3 96bd febd f7be
000000b0: 9933 323e 9a11 7b3e 8a90 04be 9fea e33d
000000c0: 7b0a 94be d214 9bbe 7486 143e 0e25 57bd
000000d0: 3602 e53d c395 a63e 432f 8dbd 50a6 80be
000000e0: 3408 9dbe 5412 fbbc c6fa 1abe 6d3c adbe
000000f0: 9249 a93e 8cef 4a3e e748 343e 4f8a 3bbe
00000100: b127 4b3e 0c8d 073e f818 f43c ee70 88be
00000110: db95 84be 8d6d 84be 8d92 aa3d e9eb 193e
00000120: a2d7 a63e 7aaf 08be fde3 3bbd 37a7 a73e
00000130: 5654 8abe 1213 35bd afee ba3e 9f1d 2b3e
00000140: 91fa 1abe cd18 9dbe a090 d7be d738 693e
00000150: a1db 9c3e 49b5 de3e b037 0c3d 6533 93be
00000160: 6090 df3d cdaa a2bd 091c aabe 7076 5d3e
00000170: d1c6 c33d 97bf 00bf b5ab 1dbe da67 8c3d
00000180: 3843 143e 42d5 89be 6426 7bbe 889a 273e
00000190: f933 893d fbd9 4abe 45ed 0abc 3fd9 953e
000001a0: 1bd8 563e 5ee6 08bf 1b2e 27bd bf23 46bf
000001b0: 2e1b 15bd a5be 08bf 0759 863c a642 c43c
000001c0: ccba e8be 5fd1 a9bd 2174 32be 3e99 5a3e
000001d0: 839e a23e fcd6 2c3c 3cb1 a0bd 0076 81bd
000001e0: 570c 0abd 4f58 5a3d d2d3 dd3e 0885 83bd
000001f0: 9543 47be 5258 94be 4b03 743e 87a4 bcbd
00000200: 0490 713e c0d8 e43e e8bc 1abb affd 9d3e
00000210: a119 623e 451b 63be 897f 8ebe a5da 963c
00000220: 6824 77be 81af d8bc 734e 6d3d 02dd c83d
00000230: 1788 de3a 24e8 d93e 9f81 043d 9e0a d8bd
00000240: 3c32 b7bd ae10 523d ffbb 403e 0e65 d73e
00000250: 05b2 753e f164 8ebe 9ea2 443d c07f 86bd
00000260: ee3b b83e da3d 6c3d 379a 6c3e 0071 513e
00000270: f718 e3be 5e13 99be 1ec3 d03d b84e 11be
00000280: 77bb 473d 906a 3d3d d30a 853c 6bb8 7dbe
00000290: 88bf 563e 4fd8 983e b263 2fbc 9c62 febd
000002a0: 9174 aabc 3c31 b3bd b7e5 00be 732b 0abe
000002b0: 011b 0dbd 3442 2abf de89 b8bd bb7b d3bd
000002c0: 3847 893e 241b a83e fb4d 1ebd 4fad 803c
000002d0: d407 a8bd a353 c03c 2152 e7bd 3682 6a3d
000002e0: a96b 963d 5833 cf3d 6845 8abe 249e a1be
000002f0: ebb5 f93b 0c61 7dbe e767 623d f778 f7bc
00000300: b09e 18be 1652 2d3e 0385 3cbd 6b75 f03e
00000310: 75b8 4b3d 4e9a d53e 70a6 10bd 9d21 28be
00000320: 7d6f d1bd c1af 223f 603d 253e e196 f43e
00000330: 6d49 91be 8f78 b23e 314c 97be a615 2dbe
00000340: 9c6f 723d b6e0 993e 5f07 f63d 15c2 8fbd
00000350: 440e 603e da3d 24be c8eb 39be 64ba 573e
00000360: 2f5f 14be a725 de3e 5760 f43d 084c ea3d
00000370: 6e22 2abb c429 43be 09d2 cf3d 28f5 a7be
00000380: ccff ccbd 3994 823e 0981 423e 0892 a9be
00000390: 989c 4cbe 6316 dbbb 7b68 d1bd 666a e7be
000003a0: dddf ea3c 15a0 bbbd c5e2 cbbc 578f 20bf
000003b0: f00b 263e e2eb 9b3e 9ede b5bd 36c9 6cba
000003c0: 2ebf 63be 08e8 c7bb 20a5 52be db8e 303d
000003d0: eb8d a73e bc68 273f 8f44 993e 04d7 87bd
000003e0: 0c69 c63d 1162 b33e ba91 6d3d 2a30 8bbe
000003f0: 203c 11bd 4e58 42bd 9415 b0be ad21 dfbe
-0.2822692 0.047891572 -0.0009636091 0.2567996 0.28349647 0.48746794 -0.20334032 0.1197067
-0.07134761 -0.10991041 -0.35957906 -0.086110786 0.1362487 -0.7083665 0.2511823 -0.0431298
0.031168899 0.28370538 0.35674265 -0.43229017 -0.23156628 -0.4174567 -0.12370837 0.25514138
0.04127622 -0.45472112 -0.3709587 -0.15186532 -0.0044340873 -1.066781 -0.30670324 0.021037286
0.20461173 0.1596004 0.03038779 -0.540188 0.23106043 0.43410844 -0.17870311 0.15470943
-0.3458884 -0.28438437 -0.07370578 -0.4838714 0.17402495 0.24518433 -0.12945762 0.11128735
-0.28914246 -0.30289322 0.14504415 -0.052525572 0.11182062 0.32536134 -0.0689378 -0.25126886
-0.3067032 -0.030648388 -0.15134725 -0.33835164 0.33063942 0.19817942 0.17605935 -0.1831448
0.1983936 0.13237399 0.029797062 -0.2664866 -0.2589558 -0.2586483 0.083287336 0.15031399
0.3258639 -0.13348189 -0.045871723 0.32744762 -0.27017468 -0.04420764 0.36510226 0.16710518
-0.15134646 -0.30682984 -0.42102528 0.22775589 0.30636314 0.43497685 0.034232795 -0.28750148
0.10916209 -0.07942734 -0.33224514 0.21627212 0.095594056 -0.5029234 -0.15397532 0.068557456
0.14478767 -0.26920515 -0.24526364 0.16367543 0.06699366 -0.19809715 -0.008479421 0.29267308
0.20980875 -0.5347651 -0.040815454 -0.77398294 -0.036402874 -0.534159 0.016399873 0.023957562
-0.45455015 -0.082918875 -0.17427112 0.2134752 0.3176156 0.010549303 -0.07846305 -0.06321335
-0.033703174 0.053306874 0.4332567 -0.06421858 -0.19459374 -0.28973633 0.23829381 -0.092110686
0.23590094 0.44696617 -0.0023611132 0.30857608 0.22080089 -0.22178371 -0.27831677 0.018414805
-0.24134982 -0.026450874 0.057936143 0.09807779 0.0016977814 0.42559922 0.03235018 -0.105489
-0.08945128 0.05128544 0.18821715 0.42069286 0.2399369 -0.27811387 0.048006646 -0.06567335
0.35983223 0.057676174 0.23105703 0.20453262 -0.44354984 -0.29897588 0.10193466 -0.14190185
0.048762765 0.046244204 0.016240513 -0.24777381 0.20971501 0.2985253 -0.010704922 -0.12421152
-0.020807536 -0.08749625 -0.1258763 -0.13493137 -0.03444958 -0.6650727 -0.09010671 -0.10326334
0.26812148 0.32833207 -0.038648587 0.01570764 -0.08204618 0.023477381 -0.11294962 0.057253085
0.07344753 0.10117215 -0.27006078 -0.31565964 0.0076205633 -0.24744052 0.05527487 -0.030209048
-0.14904284 0.16925845 -0.046025287 0.46964583 0.04973646 0.41719288 -0.035314977 -0.16419072
-0.10226343 0.6354943 0.16136694 0.4777136 -0.28376332 0.34857604 -0.29550317 -0.1690279
0.05918847 0.30054253 0.12013125 -0.0701944 0.21880442 -0.1603922 -0.1815635 0.21067196
-0.14489435 0.433881 0.11932438 0.11440283 -0.0025960463 -0.19058901 0.10147483 -0.32804227
-0.10009727 0.2550371 0.18994536 -0.33119226 -0.19981611 -0.0066860183 -0.10225006 -0.45198363
0.0286712 -0.091613926 -0.024888406 -0.6271872 0.16215491 0.30453402 -0.088803515 -0.00090326683
-0.22240898 -0.0061006583 -0.20570803 0.043104988 0.32725462 0.65394187 0.2993512 -0.06632808
0.09688005 0.35035756 0.058000304 -0.27185184 -0.03545773 -0.047447495 -0.34391463 -0.4358038

critic_layer.0.bias f4 [64]
00000000: 7756 ae3e 08a3 863e 11f7 e5be 60a3 8bbe
00000010: d1a2 dbbe f6db abbe 06f7 c9bd 91a7 75be
00000020: 065c 6cbe 581e 853e b58d 873e bfe7 7a3d
00000030: 46d0 b23e 6fed dcbe acfd ce3d 9f92 923d
00000040: 4596 a53e 2898 e63d c486 833e 0223 d13d
00000050: c62b 86be e87a 8cbe 628f 42bd c4f4 19be
00000060: 50c9 9c3e 2fbd 953e 24ff 55be 610c 663d
00000070: cf7f dfbe aa25 d3be 594e dd3e 65e6 e8be
00000080: 36da d33d abc3 8abd 714a 97be 192a 5f3e
00000090: 07f2 cf3e 8091 833e 5385 88be 80a9 c6be
000000a0: 394a d6be 6f0c a73e 3b76 10bd 5c1e 3c3e
000000b0: a703 e63e b29c 5a3e 6cbd b63d fd40 09be
000000c0: 6868 72be e036 17bd 28c6 b73e 7929 b03e
000000d0: 2b66 80be c43f 163e d9ea 973e 2ede a43e
000000e0: 949f 843e e6fb 4fbd e3ba d2bd e1b2 c03e
000000f0: 32c6 77bd 65f7 2c3e f7f5 8bbe 51f3 7dbd
0.34050342 0.26296258 -0.4491506 -0.27273083 -0.42897657 -0.33566254 -0.09861569 -0.23989703
-0.23081979 0.25999713 0.264753 0.061256167 0.34924525 -0.43149897 0.10106978 0.07156872
0.3234121 0.1125949 0.25688756 0.10211755 -0.2620527 -0.2743752 -0.04750002 -0.15034777
0.3062234 0.29245898 -0.2089811 0.05616415 -0.43652198 -0.41239673 0.43223837 -0.45488277
0.10344355 -0.06775602 -0.29548982 0.21793403 0.4061434 0.25696945 -0.26664218 -0.38801193
-0.41853502 0.32626674 -0.035269003 0.18370956 0.44924662 0.21348837 0.08922848 -0.13403697
-0.2367264 -0.036917567 0.3589337 0.3440664 -0.25077948 0.14672762 0.29671362 0.3220076
0.25902998 -0.05077734 -0.10289552 0.37636474 -0.06049175 0.16891249 -0.27336094 -0.061999623

critic_layer.2.weight f4 [64, 64]
00000000: d9d0 85bd bca6 0ebe 4137 c03c 77cb 043d
00000010: bfeb 12be 521f efbd 1411 cdbd 2635 19be
00000020: c520 8fbd db20 133e 3409 8bba 10d6 5cbc
00000030: 2b8b c73c 6cd3 a9bd e13d 013d 2965 c13b
00000040: fe09 a2bd 6892 2abd 1d80 8e3c 25c4 bdbc
00000050: 453c ea3b e3c6 a13d a58e dd3d e7e9 87bd
00000060: b838 963b 5dee f13d e089 863d 49be 3e3a
00000070: 750e f0bc 312b debd f709 e9bc 2f7c 2bbd
00000080: e007 c9bc 96cf 143d b8f3 ec3c fc64 923d
00000090: 0e61 8dbd eadb 753e 62c7 05be 590f e43c
000000a0: 6cb2 00bd 9c04 f13d 0fc2 92bd 8d77 8f3d
000000b0: 23b2 d3bd f13b c8bc b841 d63d ecc8 0c3d
000000c0: 0c67 603d ad22 b5bd b2c6 bc3c 58a1 7bbb
000000d0: 4ae5 93bd 2f0f d9bd 36cf b9bd 1981 aa3d
000000e0: 9a1a c1bd 807b 48bd a1cc 7f3d 8e97 42bd
000000f0: 374d b63d b477 f23d 4e10 b23d f87c 403d
00000100: 10b1 17be e978 9dbd 79d9 713e e48e 98be
00000110: 481c c3bd 793c e8be 153b 1ebe ba61 c0be
00000120: 9c3c 1d3e b8ba c83d 9fb8 a8be 7f2d 07bd
00000130: 8998 b2bc face 6abe f998 46be 7716 2d3e
00000140: 5c5e b23e 4152 1dbe 9dac 393e e30d af3e
00000150: 353a 52bd 6c1c 493d 43fc bf3e 1d95 10be
00000160: 4090 793d 846c b23e 61df b13d 203c 9c3e
00000170: a872 183e 8d15 cabe 2fed f7bd 8a08 f93d
00000180: fa16 8ebd 3411 283e 7370 61be cc36 bc3d
00000190: 0e9f 3d3c bbd5 883e 99e1 bebe ae43 c93d
000001a0: 8903 5a3c 51c5 e73d 23b6 283e ff90 c4be
000001b0: 8052 c0bd 99fa a13e f63d b8bd 85d8 4bbe
000001c0: f90b 16be 8f99 e6be d1a4 42be 04c7 05be
000001d0: ccf8 a1bd 90b9 be3c b7e1 503d 956b 2c3d
000001e0: d73c 29bd 57d2 0ebe b302 063e f179 973e
000001f0: 5221 aa3c e66c bb3e e7a4 0fbd 67fe 30bd
00000200: cfed c4bd 17ff 443d 8605 023e 2b44 76bc
00000210: 103b 663d 3eaa c43c 8b1d 51bd 3108 fbbd
00000220: 7c57 0abe a39c 013e 1427 4a3d 92a2 193c
00000230: 885b d23c fdca 933d 7617 863d 0cf3 c3bd
00000240: 29c4 4b3d 86e1 15be b0ac 543c 8c90 4b3e
00000250: 06e1 dabd 4770 b7bd bf1f abbd df0d 223d
00000260: 64e7 8d3d 5753 ff3d a34c 863d 7b34 b4bc
00000270: 8d31 f43d 79da 8a3d 472a 683d a2e2 073e
00000280: 4fb7 04be ab9c da3c ea28 9b3d 205a bbbd
00000290: d0ec 17be 5fad d23d 779f 9cbd 3637 da3c
000002a0: 46b2 e13d 925c bb3d c0d9 373c 5c65 80bd
000002b0: c2d6 37be 48d5 143e eefd a03c 8fe9 c43b
000002c0: 97d5 243c 6687 49be 21c7 a5bd f60d 88bd
000002d0: 5a1e 34bd 2ea5 543c c042 babc 9354 643c
000002e0: ceb5 c0bb 4f96 67bd 29c2 30bd ba37 cd3c
000002f0: c105 ba3d 5e75 033d 9548 8abb 03e7 afbc
00000300: 2626 68bd a583 083e 4790 7fbd af78 373e
00000310: ff6a 093d d76c 973c 1d93 783d decd 95bb
00000320: 8d9e 4ebe 754a d1bd a2b7 5a3e db82 cf3c
00000330: e729 243d c122 ae3d 12da f33d 8087 13be
00000340: 2a7b 9439 1e68 993d 9f9a b2bd 3f74 8a3d
00000350: 9459 72bd faff b23d eace 51bc 1d67 6d3c
00000360: 6be7 aabc 4cc9 bfbd 1bc8 39be 02a8 06bd
00000370: 6d3c 7e3c 1d3e 63bd 3b09 3fbd 5fc0 b6bd
00000380: 2a25 eb3c e86c d5bb cb05 203d b225 14bd
00000390: 60fc a73c 3e93 e63c 491f 283e 6cfa f63c
000003a0: 5d55 1d3e 062e a13d bfe9 303e 24e9 933c
000003b0: 65e8 6a3d a281 52bd cc40 dd3d ef18 093e
000003c0: 2d47 eebb ccf6 61bd 0842 4c3d 1f41 2bbe
000003d0: 1272 8cbd 8e65 34be c165 00be e7ac 063d
000003e0: 70d2 ee3d 8ebb 3e3e 2382 1bbe f468 12be
000003f0: c49b 5a3c bc17 fabd 630b cabc a602 8ebd
-0.06533975 -0.13930792 0.023463847 0.0324206 -0.14347742 -0.11675896 -0.10013023 -0.14961681
-0.06988672 0.14368002 -0.0010607601 -0.013478771 0.024358353 -0.08292279 0.031553153 0.005901952
-0.07912062 -0.04164353 0.017395074 -0.023164818 0.007148298 0.07899263 0.10818223 -0.0663641
0.004584398 0.11813042 0.06569266 0.00072762795 -0.029303769 -0.10848082 -0.028447134 -0.041866478
-0.024539888 0.036330782 0.028924808 0.071481675 -0.06903277 0.24009672 -0.1306434 0.02783935
-0.031420156 0.11768457 -0.0716592 0.070052244 -0.10336711 -0.024442645 0.104617536 0.0343713
0.054785773 -0.088445045 0.023043964 -0.003839573 -0.07221468 -0.10598599 -0.090727255 0.08325405
-0.09428902 -0.048945904 0.06245101 -0.047507815 0.08901446 0.11839238 0.08694516 0.04699418
-0.14813638 -0.076890774 0.23618115 -0.29796517 -0.095268786 -0.45358637 -0.15452226 -0.3757456
0.15355152 0.09801239 -0.32953355 -0.033002373 -0.02180125 -0.22930518 -0.19394292 0.16903101
0.34837615 -0.15363409 0.18132253 0.34190282 -0.05132504 0.04909937 0.37497148 -0.14119382
0.060928583 0.34848416 0.08685184 0.30514622 0.14887488 -0.39469567 -0.12105786 0.12159832
-0.06937976 0.16412812 -0.22015552 0.09190139 0.011573566 0.26725563 -0.37281492 0.09827362
0.013306507 0.11316932 0.1647573 -0.38391873 -0.093907356 0.31636503 -0.08996193 -0.19906814
-0.14653005 -0.4503903 -0.19008185 -0.130642 -0.07908782 0.023281842 0.05099651 0.042094786
-0.041317787 -0.13947426 0.13086967 0.2958522 0.020767841 0.3660652 -0.035069373 -0.043211367
-0.09615671 0.048094835 0.1269742 -0.015030901 0.05620867 0.024006959 -0.051053565 -0.12257422
-0.13509935 0.12657408 0.049353674 0.009377139 0.025678411 0.07216451 0.065474436 -0.09567842
0.04974762 -0.14636812 0.012980625 0.19879359 -0.10687451 -0.08956962 -0.083556645 0.03956401
0.069289 0.12467068 0.06557586 -0.02199768 0.119235136 0.067799516 0.056680944 0.13270047
-0.12960552 0.026686033 0.07576163 -0.09148049 -0.1483643 0.10286974 -0.07647603 0.026637655
0.11020331 0.09148516 0.011221349 -0.06269333 -0.17953017 0.14534485 0.019652333 0.0060092877
0.010060689 -0.19680557 -0.080946214 -0.06643288 -0.043974258 0.012978835 -0.022736907 0.01393618
-0.005881048 -0.05653983 -0.043153916 0.025050987 0.09083129 0.032094352 -0.0042200782 -0.02147246
-0.056677006 0.13331468 -0.062393453 0.17917131 0.033549305 0.018484516 0.060687173 -0.0045716604
-0.2017767 -0.1021928 0.21359113 0.025330951 0.040079024 0.085027225 0.11906828 -0.14407158
0.00028320524 0.07490562 -0.08720898 0.067604534 -0.05916746 0.0874023 -0.01280568 0.014489916
-0.020862302 -0.09364566 -0.1814274 -0.03287507 0.015517336 -0.055479158 -0.046639662 -0.089234106
0.028704245 -0.006513227 0.039068025 -0.03616876 0.020506084 0.028146382 0.16418184 0.030148707
0.15364595 0.078701064 0.17276667 0.018055506 0.057350535 -0.05139316 0.10803375 0.13388418
-0.0072716684 -0.055167004 0.04986766 -0.1672406 -0.06857695 -0.17616865 -0.12538816 0.032879736
0.116612315 0.18626234 -0.15186362 -0.14297849 0.0133428015 -0.12211558 -0.024663633 -0.06934099

critic_layer.2.bias f4 [64]
00000000: 28ac f4bd c415 ef3d fc6e 60bd 7c4e af3d
00000010: e0b0 9ebd 907e 0a3e a47f 87be 13a9 993c
00000020: ed37 cdbc 0fe5 5ebe 400b 64be 2f8c 80bb
00000030: 4b69 08bd a9d5 e53d 8ae1 c2bd 6945 babd
00000040: 96f4 81bd f0ad 80bc 24c1 553e d173 333d
00000050: 32a3 b33d fbff 31bc 9603 77bd 666a a73d
00000060: f01a 833d e160 233e 54c1 c53d 9468 3e3e
00000070: f90a 9f3c 97f9 4abd 165a adbd 884f 843e
00000080: 49ea d1bd 943b cc3d 1e08 5fbd d5aa b4bd
00000090: 1d07 b53d e7a3 433d adc2 56be e7a2 ad3d
000000a0: 4a35 993e 2de5 263d 1b5f 89bd af0a 39be
000000b0: f0f7 4bbd 1187 803e 0eac d4bd 205f a63d
000000c0: f9cf d9bd 989f 763e bec4 d5bd 3790 9eba
000000d0: 8e04 5abe 4c6d 8dbe b71a 6b3d b3ee 11be
000000e0: 490b d5bd 64c4 2abe b60c e83b cd80 ab3c
000000f0: 1dee b33d a6d0 0dbe 272d 6d3b acaa 063d
-0.11946899 0.11674073 -0.054793343 0.085598916 -0.0774858 0.13524842 -0.2646457 0.018757379
-0.025051082 -0.21767066 -0.22269917 -0.003922961 -0.03330354 0.11222393 -0.095156744 -0.0909527
-0.06345479 -0.01570794 0.20874459 0.043811623 0.087713614 -0.010864253 -0.060306154 0.08174591
0.06401622 0.15954925 0.09656015 0.18594581 0.019414412 -0.049554434 -0.08464448 0.25841928
-0.102497645 0.09972301 -0.0544511 -0.08821646 0.088392474 0.04776373 -0.209727 0.08478337
0.2992347 0.040745903 -0.06707593 -0.18070482 -0.049797 0.25103047 -0.10384379 0.081236124
-0.10635371 0.24084318 -0.10437916 -0.0012097423 -0.212908 -0.2762245 0.057398524 -0.14251213
-0.10402543 -0.1667648 0.0070815934 0.02093544 0.08785651 -0.13849124 0.0036190243 0.03287761

critic_layer.4.weight f4 [1, 64]
00000000: 31cd 8f3b 7483 413e 9b13 cb3b 5133 6a3b
00000010: daec 0b3c 6df3 4a3e a38a 5e3d d482 9fbb
00000020: 6be1 ba3b 8ae3 d7bd e455 ac3c 6533 ba3b
00000030: 8e2a adbd 120b 143c 42d5 803b 7a02 c63b
00000040: c764 a43a d7b2 3ebb b503 d4bc a04d 98bb
00000050: c074 043c 6c16 293c cc32 403e dd28 2bbc
00000060: 726a 7a3b 64cd 273e 9fd6 06bd f425 ab3e
00000070: 9830 1f3c 7aee 31bb 11df 98bb 03c7 8cbd
00000080: 7771 c1bb 7c88 4dbc da19 373b 2c71 1e3b
00000090: 9b43 6139 0d01 1abb 95dc a83d 55f3 45bb
000000a0: 05cd a9bd 8ac0 a1bb 13bc 683b b52a 2d3c
000000b0: 6e7c fc3c 3e95 18be 1094 583b 0845 8e3b
000000c0: 7a79 b2bb 4cb4 eabd be63 15bc 459b 173c
000000d0: fb35 af3c 0655 1a3e 0bae 18bc c2d5 193c
000000e0: b6ec 093a b375 ad3d 2490 8d3b 467b c33b
000000f0: 8d0b 8abb ed97 543b 9090 c4bb 2e76 a73a
0.0043884744 0.18897802 0.0061974055 0.0035736153 0.0085403565 0.19819422 0.054331433 -0.004867891
0.0057031414 -0.105414465 0.02103705 0.0056823962 -0.08455382 0.0090358425 0.0039316723 0.0060427757
0.0012542241 -0.0029098296 -0.025880674 -0.0046479255 0.008084476 0.010320287 0.18769377 -0.010446754
0.003821042 0.16386944 -0.032919522 0.33427393 0.0097161755 -0.00271502 -0.0046652635 -0.06873896
-0.0059034186 -0.012544747 0.0027938993 0.0024176342 0.00021482857 -0.0023499161 0.08245198 -0.0030204852
-0.082910575 -0.0049362825 0.0035512492 0.010569264 0.030821051 -0.14900681 0.0033047237 0.0043417253
-0.00544661 -0.1146017 -0.009118019 0.009253328 0.021388045 0.15071496 -0.009318839 0.009389343
0.0005261408 0.08469715 0.0043201614 0.005965623 -0.0042128027 0.0032439188 -0.0059986785 0.0012776309
